module {
  func.func private @subgraph0(memref<1x5xi64, strided<[5, 1], offset: ?>>, memref<1x512xi64, strided<[512, 1], offset: ?>>, memref<30522x768xf32, strided<[768, 1], offset: ?>>, memref<1x5xi64, strided<[5, 1], offset: ?>>, memref<2x768xf32, strided<[768, 1], offset: ?>>, memref<1x5xi64, strided<[5, 1], offset: ?>>, memref<512x768xf32, strided<[768, 1], offset: ?>>, memref<768xf32, strided<[1], offset: ?>>, memref<768xf32, strided<[1], offset: ?>>, memref<768x768xf32, strided<[768, 1], offset: ?>>, memref<768xf32, strided<[1], offset: ?>>, memref<768x768xf32, strided<[768, 1], offset: ?>>, memref<768xf32, strided<[1], offset: ?>>, memref<768x768xf32, strided<[768, 1], offset: ?>>, memref<768xf32, strided<[1], offset: ?>>, memref<768x768xf32, strided<[768, 1], offset: ?>>, memref<768xf32, strided<[1], offset: ?>>, memref<768xf32, strided<[1], offset: ?>>, memref<768xf32, strided<[1], offset: ?>>, memref<3072x768xf32, strided<[768, 1], offset: ?>>, memref<3072xf32, strided<[1], offset: ?>>, memref<768x3072xf32, strided<[3072, 1], offset: ?>>, memref<768xf32, strided<[1], offset: ?>>, memref<768xf32, strided<[1], offset: ?>>, memref<768xf32, strided<[1], offset: ?>>, memref<768x768xf32, strided<[768, 1], offset: ?>>, memref<768xf32, strided<[1], offset: ?>>, memref<768x768xf32, strided<[768, 1], offset: ?>>, memref<768xf32, strided<[1], offset: ?>>, memref<768x768xf32, strided<[768, 1], offset: ?>>, memref<768xf32, strided<[1], offset: ?>>, memref<768x768xf32, strided<[768, 1], offset: ?>>, memref<768xf32, strided<[1], offset: ?>>, memref<768xf32, strided<[1], offset: ?>>, memref<768xf32, strided<[1], offset: ?>>, memref<3072x768xf32, strided<[768, 1], offset: ?>>, memref<3072xf32, strided<[1], offset: ?>>, memref<768x3072xf32, strided<[3072, 1], offset: ?>>, memref<768xf32, strided<[1], offset: ?>>, memref<768xf32, strided<[1], offset: ?>>, memref<768xf32, strided<[1], offset: ?>>, memref<768x768xf32, strided<[768, 1], offset: ?>>, memref<768xf32, strided<[1], offset: ?>>, memref<768x768xf32, strided<[768, 1], offset: ?>>, memref<768xf32, strided<[1], offset: ?>>, memref<768x768xf32, strided<[768, 1], offset: ?>>, memref<768xf32, strided<[1], offset: ?>>, memref<768x768xf32, strided<[768, 1], offset: ?>>, memref<768xf32, strided<[1], offset: ?>>, memref<768xf32, strided<[1], offset: ?>>, memref<768xf32, strided<[1], offset: ?>>, memref<3072x768xf32, strided<[768, 1], offset: ?>>, memref<3072xf32, strided<[1], offset: ?>>, memref<768x3072xf32, strided<[3072, 1], offset: ?>>, memref<768xf32, strided<[1], offset: ?>>, memref<768xf32, strided<[1], offset: ?>>, memref<768xf32, strided<[1], offset: ?>>, memref<768x768xf32, strided<[768, 1], offset: ?>>, memref<768xf32, strided<[1], offset: ?>>, memref<768x768xf32, strided<[768, 1], offset: ?>>, memref<768xf32, strided<[1], offset: ?>>, memref<768x768xf32, strided<[768, 1], offset: ?>>, memref<768xf32, strided<[1], offset: ?>>, memref<768x768xf32, strided<[768, 1], offset: ?>>, memref<768xf32, strided<[1], offset: ?>>, memref<768xf32, strided<[1], offset: ?>>, memref<768xf32, strided<[1], offset: ?>>, memref<3072x768xf32, strided<[768, 1], offset: ?>>, memref<3072xf32, strided<[1], offset: ?>>, memref<768x3072xf32, strided<[3072, 1], offset: ?>>, memref<768xf32, strided<[1], offset: ?>>, memref<768xf32, strided<[1], offset: ?>>, memref<768xf32, strided<[1], offset: ?>>, memref<768x768xf32, strided<[768, 1], offset: ?>>, memref<768xf32, strided<[1], offset: ?>>, memref<768x768xf32, strided<[768, 1], offset: ?>>, memref<768xf32, strided<[1], offset: ?>>, memref<768x768xf32, strided<[768, 1], offset: ?>>, memref<768xf32, strided<[1], offset: ?>>, memref<768x768xf32, strided<[768, 1], offset: ?>>, memref<768xf32, strided<[1], offset: ?>>, memref<768xf32, strided<[1], offset: ?>>, memref<768xf32, strided<[1], offset: ?>>, memref<3072x768xf32, strided<[768, 1], offset: ?>>, memref<3072xf32, strided<[1], offset: ?>>, memref<768x3072xf32, strided<[3072, 1], offset: ?>>, memref<768xf32, strided<[1], offset: ?>>, memref<768xf32, strided<[1], offset: ?>>, memref<768xf32, strided<[1], offset: ?>>, memref<768x768xf32, strided<[768, 1], offset: ?>>, memref<768xf32, strided<[1], offset: ?>>, memref<768x768xf32, strided<[768, 1], offset: ?>>, memref<768xf32, strided<[1], offset: ?>>, memref<768x768xf32, strided<[768, 1], offset: ?>>, memref<768xf32, strided<[1], offset: ?>>, memref<768x768xf32, strided<[768, 1], offset: ?>>, memref<768xf32, strided<[1], offset: ?>>, memref<768xf32, strided<[1], offset: ?>>, memref<768xf32, strided<[1], offset: ?>>, memref<3072x768xf32, strided<[768, 1], offset: ?>>, memref<3072xf32, strided<[1], offset: ?>>, memref<768x3072xf32, strided<[3072, 1], offset: ?>>, memref<768xf32, strided<[1], offset: ?>>, memref<768xf32, strided<[1], offset: ?>>, memref<768xf32, strided<[1], offset: ?>>, memref<768x768xf32, strided<[768, 1], offset: ?>>, memref<768xf32, strided<[1], offset: ?>>, memref<768x768xf32, strided<[768, 1], offset: ?>>, memref<768xf32, strided<[1], offset: ?>>, memref<768x768xf32, strided<[768, 1], offset: ?>>, memref<768xf32, strided<[1], offset: ?>>, memref<768x768xf32, strided<[768, 1], offset: ?>>, memref<768xf32, strided<[1], offset: ?>>, memref<768xf32, strided<[1], offset: ?>>, memref<768xf32, strided<[1], offset: ?>>, memref<3072x768xf32, strided<[768, 1], offset: ?>>, memref<3072xf32, strided<[1], offset: ?>>, memref<768x3072xf32, strided<[3072, 1], offset: ?>>, memref<768xf32, strided<[1], offset: ?>>, memref<768xf32, strided<[1], offset: ?>>, memref<768xf32, strided<[1], offset: ?>>, memref<768x768xf32, strided<[768, 1], offset: ?>>, memref<768xf32, strided<[1], offset: ?>>, memref<768x768xf32, strided<[768, 1], offset: ?>>, memref<768xf32, strided<[1], offset: ?>>, memref<768x768xf32, strided<[768, 1], offset: ?>>, memref<768xf32, strided<[1], offset: ?>>, memref<768x768xf32, strided<[768, 1], offset: ?>>, memref<768xf32, strided<[1], offset: ?>>, memref<768xf32, strided<[1], offset: ?>>, memref<768xf32, strided<[1], offset: ?>>, memref<3072x768xf32, strided<[768, 1], offset: ?>>, memref<3072xf32, strided<[1], offset: ?>>, memref<768x3072xf32, strided<[3072, 1], offset: ?>>, memref<768xf32, strided<[1], offset: ?>>, memref<768xf32, strided<[1], offset: ?>>, memref<768xf32, strided<[1], offset: ?>>, memref<768x768xf32, strided<[768, 1], offset: ?>>, memref<768xf32, strided<[1], offset: ?>>, memref<768x768xf32, strided<[768, 1], offset: ?>>, memref<768xf32, strided<[1], offset: ?>>, memref<768x768xf32, strided<[768, 1], offset: ?>>, memref<768xf32, strided<[1], offset: ?>>, memref<768x768xf32, strided<[768, 1], offset: ?>>, memref<768xf32, strided<[1], offset: ?>>, memref<768xf32, strided<[1], offset: ?>>, memref<768xf32, strided<[1], offset: ?>>, memref<3072x768xf32, strided<[768, 1], offset: ?>>, memref<3072xf32, strided<[1], offset: ?>>, memref<768x3072xf32, strided<[3072, 1], offset: ?>>, memref<768xf32, strided<[1], offset: ?>>, memref<768xf32, strided<[1], offset: ?>>, memref<768xf32, strided<[1], offset: ?>>, memref<768x768xf32, strided<[768, 1], offset: ?>>, memref<768xf32, strided<[1], offset: ?>>, memref<768x768xf32, strided<[768, 1], offset: ?>>, memref<768xf32, strided<[1], offset: ?>>, memref<768x768xf32, strided<[768, 1], offset: ?>>, memref<768xf32, strided<[1], offset: ?>>, memref<768x768xf32, strided<[768, 1], offset: ?>>, memref<768xf32, strided<[1], offset: ?>>, memref<768xf32, strided<[1], offset: ?>>, memref<768xf32, strided<[1], offset: ?>>, memref<3072x768xf32, strided<[768, 1], offset: ?>>, memref<3072xf32, strided<[1], offset: ?>>, memref<768x3072xf32, strided<[3072, 1], offset: ?>>, memref<768xf32, strided<[1], offset: ?>>, memref<768xf32, strided<[1], offset: ?>>, memref<768xf32, strided<[1], offset: ?>>, memref<768x768xf32, strided<[768, 1], offset: ?>>, memref<768xf32, strided<[1], offset: ?>>, memref<768x768xf32, strided<[768, 1], offset: ?>>, memref<768xf32, strided<[1], offset: ?>>, memref<768x768xf32, strided<[768, 1], offset: ?>>, memref<768xf32, strided<[1], offset: ?>>, memref<768x768xf32, strided<[768, 1], offset: ?>>, memref<768xf32, strided<[1], offset: ?>>, memref<768xf32, strided<[1], offset: ?>>, memref<768xf32, strided<[1], offset: ?>>, memref<3072x768xf32, strided<[768, 1], offset: ?>>, memref<3072xf32, strided<[1], offset: ?>>, memref<768x3072xf32, strided<[3072, 1], offset: ?>>, memref<768xf32, strided<[1], offset: ?>>, memref<768xf32, strided<[1], offset: ?>>, memref<768xf32, strided<[1], offset: ?>>, memref<768x768xf32, strided<[768, 1], offset: ?>>, memref<768xf32, strided<[1], offset: ?>>, memref<768x768xf32, strided<[768, 1], offset: ?>>, memref<768xf32, strided<[1], offset: ?>>, memref<768x768xf32, strided<[768, 1], offset: ?>>, memref<768xf32, strided<[1], offset: ?>>, memref<768x768xf32, strided<[768, 1], offset: ?>>, memref<768xf32, strided<[1], offset: ?>>, memref<768xf32, strided<[1], offset: ?>>, memref<768xf32, strided<[1], offset: ?>>, memref<3072x768xf32, strided<[768, 1], offset: ?>>, memref<3072xf32, strided<[1], offset: ?>>, memref<768x3072xf32, strided<[3072, 1], offset: ?>>, memref<768xf32, strided<[1], offset: ?>>, memref<768xf32, strided<[1], offset: ?>>, memref<768xf32, strided<[1], offset: ?>>, memref<768x768xf32, strided<[768, 1], offset: ?>>, memref<768xf32, strided<[1], offset: ?>>, memref<6x768xf32, strided<[768, 1], offset: ?>>, memref<6xf32, strided<[1], offset: ?>>) -> memref<1x6xf32>
  func.func @forward(%arg0: memref<109486854xf32>, %arg1: memref<512xi64>, %arg2: memref<1x5xi64>, %arg3: memref<1x5xi64>, %arg4: memref<1x5xi64>) -> memref<1x6xf32> {
    %subview = memref.subview %arg0[0] [23440896] [1] : memref<109486854xf32> to memref<23440896xf32>
    %expand_shape = memref.expand_shape %subview [[0, 1]] : memref<23440896xf32> into memref<30522x768xf32>
    %subview_0 = memref.subview %arg0[23440896] [1536] [1] : memref<109486854xf32> to memref<1536xf32, strided<[1], offset: 23440896>>
    %expand_shape_1 = memref.expand_shape %subview_0 [[0, 1]] : memref<1536xf32, strided<[1], offset: 23440896>> into memref<2x768xf32, strided<[768, 1], offset: 23440896>>
    %subview_2 = memref.subview %arg0[23442432] [393216] [1] : memref<109486854xf32> to memref<393216xf32, strided<[1], offset: 23442432>>
    %expand_shape_3 = memref.expand_shape %subview_2 [[0, 1]] : memref<393216xf32, strided<[1], offset: 23442432>> into memref<512x768xf32, strided<[768, 1], offset: 23442432>>
    %subview_4 = memref.subview %arg0[23835648] [768] [1] : memref<109486854xf32> to memref<768xf32, strided<[1], offset: 23835648>>
    %subview_5 = memref.subview %arg0[23836416] [768] [1] : memref<109486854xf32> to memref<768xf32, strided<[1], offset: 23836416>>
    %subview_6 = memref.subview %arg0[23837184] [589824] [1] : memref<109486854xf32> to memref<589824xf32, strided<[1], offset: 23837184>>
    %expand_shape_7 = memref.expand_shape %subview_6 [[0, 1]] : memref<589824xf32, strided<[1], offset: 23837184>> into memref<768x768xf32, strided<[768, 1], offset: 23837184>>
    %subview_8 = memref.subview %arg0[24427008] [768] [1] : memref<109486854xf32> to memref<768xf32, strided<[1], offset: 24427008>>
    %subview_9 = memref.subview %arg0[24427776] [589824] [1] : memref<109486854xf32> to memref<589824xf32, strided<[1], offset: 24427776>>
    %expand_shape_10 = memref.expand_shape %subview_9 [[0, 1]] : memref<589824xf32, strided<[1], offset: 24427776>> into memref<768x768xf32, strided<[768, 1], offset: 24427776>>
    %subview_11 = memref.subview %arg0[25017600] [768] [1] : memref<109486854xf32> to memref<768xf32, strided<[1], offset: 25017600>>
    %subview_12 = memref.subview %arg0[25018368] [589824] [1] : memref<109486854xf32> to memref<589824xf32, strided<[1], offset: 25018368>>
    %expand_shape_13 = memref.expand_shape %subview_12 [[0, 1]] : memref<589824xf32, strided<[1], offset: 25018368>> into memref<768x768xf32, strided<[768, 1], offset: 25018368>>
    %subview_14 = memref.subview %arg0[25608192] [768] [1] : memref<109486854xf32> to memref<768xf32, strided<[1], offset: 25608192>>
    %subview_15 = memref.subview %arg0[25608960] [589824] [1] : memref<109486854xf32> to memref<589824xf32, strided<[1], offset: 25608960>>
    %expand_shape_16 = memref.expand_shape %subview_15 [[0, 1]] : memref<589824xf32, strided<[1], offset: 25608960>> into memref<768x768xf32, strided<[768, 1], offset: 25608960>>
    %subview_17 = memref.subview %arg0[26198784] [768] [1] : memref<109486854xf32> to memref<768xf32, strided<[1], offset: 26198784>>
    %subview_18 = memref.subview %arg0[26199552] [768] [1] : memref<109486854xf32> to memref<768xf32, strided<[1], offset: 26199552>>
    %subview_19 = memref.subview %arg0[26200320] [768] [1] : memref<109486854xf32> to memref<768xf32, strided<[1], offset: 26200320>>
    %subview_20 = memref.subview %arg0[26201088] [2359296] [1] : memref<109486854xf32> to memref<2359296xf32, strided<[1], offset: 26201088>>
    %expand_shape_21 = memref.expand_shape %subview_20 [[0, 1]] : memref<2359296xf32, strided<[1], offset: 26201088>> into memref<3072x768xf32, strided<[768, 1], offset: 26201088>>
    %subview_22 = memref.subview %arg0[28560384] [3072] [1] : memref<109486854xf32> to memref<3072xf32, strided<[1], offset: 28560384>>
    %subview_23 = memref.subview %arg0[28563456] [2359296] [1] : memref<109486854xf32> to memref<2359296xf32, strided<[1], offset: 28563456>>
    %expand_shape_24 = memref.expand_shape %subview_23 [[0, 1]] : memref<2359296xf32, strided<[1], offset: 28563456>> into memref<768x3072xf32, strided<[3072, 1], offset: 28563456>>
    %subview_25 = memref.subview %arg0[30922752] [768] [1] : memref<109486854xf32> to memref<768xf32, strided<[1], offset: 30922752>>
    %subview_26 = memref.subview %arg0[30923520] [768] [1] : memref<109486854xf32> to memref<768xf32, strided<[1], offset: 30923520>>
    %subview_27 = memref.subview %arg0[30924288] [768] [1] : memref<109486854xf32> to memref<768xf32, strided<[1], offset: 30924288>>
    %subview_28 = memref.subview %arg0[30925056] [589824] [1] : memref<109486854xf32> to memref<589824xf32, strided<[1], offset: 30925056>>
    %expand_shape_29 = memref.expand_shape %subview_28 [[0, 1]] : memref<589824xf32, strided<[1], offset: 30925056>> into memref<768x768xf32, strided<[768, 1], offset: 30925056>>
    %subview_30 = memref.subview %arg0[31514880] [768] [1] : memref<109486854xf32> to memref<768xf32, strided<[1], offset: 31514880>>
    %subview_31 = memref.subview %arg0[31515648] [589824] [1] : memref<109486854xf32> to memref<589824xf32, strided<[1], offset: 31515648>>
    %expand_shape_32 = memref.expand_shape %subview_31 [[0, 1]] : memref<589824xf32, strided<[1], offset: 31515648>> into memref<768x768xf32, strided<[768, 1], offset: 31515648>>
    %subview_33 = memref.subview %arg0[32105472] [768] [1] : memref<109486854xf32> to memref<768xf32, strided<[1], offset: 32105472>>
    %subview_34 = memref.subview %arg0[32106240] [589824] [1] : memref<109486854xf32> to memref<589824xf32, strided<[1], offset: 32106240>>
    %expand_shape_35 = memref.expand_shape %subview_34 [[0, 1]] : memref<589824xf32, strided<[1], offset: 32106240>> into memref<768x768xf32, strided<[768, 1], offset: 32106240>>
    %subview_36 = memref.subview %arg0[32696064] [768] [1] : memref<109486854xf32> to memref<768xf32, strided<[1], offset: 32696064>>
    %subview_37 = memref.subview %arg0[32696832] [589824] [1] : memref<109486854xf32> to memref<589824xf32, strided<[1], offset: 32696832>>
    %expand_shape_38 = memref.expand_shape %subview_37 [[0, 1]] : memref<589824xf32, strided<[1], offset: 32696832>> into memref<768x768xf32, strided<[768, 1], offset: 32696832>>
    %subview_39 = memref.subview %arg0[33286656] [768] [1] : memref<109486854xf32> to memref<768xf32, strided<[1], offset: 33286656>>
    %subview_40 = memref.subview %arg0[33287424] [768] [1] : memref<109486854xf32> to memref<768xf32, strided<[1], offset: 33287424>>
    %subview_41 = memref.subview %arg0[33288192] [768] [1] : memref<109486854xf32> to memref<768xf32, strided<[1], offset: 33288192>>
    %subview_42 = memref.subview %arg0[33288960] [2359296] [1] : memref<109486854xf32> to memref<2359296xf32, strided<[1], offset: 33288960>>
    %expand_shape_43 = memref.expand_shape %subview_42 [[0, 1]] : memref<2359296xf32, strided<[1], offset: 33288960>> into memref<3072x768xf32, strided<[768, 1], offset: 33288960>>
    %subview_44 = memref.subview %arg0[35648256] [3072] [1] : memref<109486854xf32> to memref<3072xf32, strided<[1], offset: 35648256>>
    %subview_45 = memref.subview %arg0[35651328] [2359296] [1] : memref<109486854xf32> to memref<2359296xf32, strided<[1], offset: 35651328>>
    %expand_shape_46 = memref.expand_shape %subview_45 [[0, 1]] : memref<2359296xf32, strided<[1], offset: 35651328>> into memref<768x3072xf32, strided<[3072, 1], offset: 35651328>>
    %subview_47 = memref.subview %arg0[38010624] [768] [1] : memref<109486854xf32> to memref<768xf32, strided<[1], offset: 38010624>>
    %subview_48 = memref.subview %arg0[38011392] [768] [1] : memref<109486854xf32> to memref<768xf32, strided<[1], offset: 38011392>>
    %subview_49 = memref.subview %arg0[38012160] [768] [1] : memref<109486854xf32> to memref<768xf32, strided<[1], offset: 38012160>>
    %subview_50 = memref.subview %arg0[38012928] [589824] [1] : memref<109486854xf32> to memref<589824xf32, strided<[1], offset: 38012928>>
    %expand_shape_51 = memref.expand_shape %subview_50 [[0, 1]] : memref<589824xf32, strided<[1], offset: 38012928>> into memref<768x768xf32, strided<[768, 1], offset: 38012928>>
    %subview_52 = memref.subview %arg0[38602752] [768] [1] : memref<109486854xf32> to memref<768xf32, strided<[1], offset: 38602752>>
    %subview_53 = memref.subview %arg0[38603520] [589824] [1] : memref<109486854xf32> to memref<589824xf32, strided<[1], offset: 38603520>>
    %expand_shape_54 = memref.expand_shape %subview_53 [[0, 1]] : memref<589824xf32, strided<[1], offset: 38603520>> into memref<768x768xf32, strided<[768, 1], offset: 38603520>>
    %subview_55 = memref.subview %arg0[39193344] [768] [1] : memref<109486854xf32> to memref<768xf32, strided<[1], offset: 39193344>>
    %subview_56 = memref.subview %arg0[39194112] [589824] [1] : memref<109486854xf32> to memref<589824xf32, strided<[1], offset: 39194112>>
    %expand_shape_57 = memref.expand_shape %subview_56 [[0, 1]] : memref<589824xf32, strided<[1], offset: 39194112>> into memref<768x768xf32, strided<[768, 1], offset: 39194112>>
    %subview_58 = memref.subview %arg0[39783936] [768] [1] : memref<109486854xf32> to memref<768xf32, strided<[1], offset: 39783936>>
    %subview_59 = memref.subview %arg0[39784704] [589824] [1] : memref<109486854xf32> to memref<589824xf32, strided<[1], offset: 39784704>>
    %expand_shape_60 = memref.expand_shape %subview_59 [[0, 1]] : memref<589824xf32, strided<[1], offset: 39784704>> into memref<768x768xf32, strided<[768, 1], offset: 39784704>>
    %subview_61 = memref.subview %arg0[40374528] [768] [1] : memref<109486854xf32> to memref<768xf32, strided<[1], offset: 40374528>>
    %subview_62 = memref.subview %arg0[40375296] [768] [1] : memref<109486854xf32> to memref<768xf32, strided<[1], offset: 40375296>>
    %subview_63 = memref.subview %arg0[40376064] [768] [1] : memref<109486854xf32> to memref<768xf32, strided<[1], offset: 40376064>>
    %subview_64 = memref.subview %arg0[40376832] [2359296] [1] : memref<109486854xf32> to memref<2359296xf32, strided<[1], offset: 40376832>>
    %expand_shape_65 = memref.expand_shape %subview_64 [[0, 1]] : memref<2359296xf32, strided<[1], offset: 40376832>> into memref<3072x768xf32, strided<[768, 1], offset: 40376832>>
    %subview_66 = memref.subview %arg0[42736128] [3072] [1] : memref<109486854xf32> to memref<3072xf32, strided<[1], offset: 42736128>>
    %subview_67 = memref.subview %arg0[42739200] [2359296] [1] : memref<109486854xf32> to memref<2359296xf32, strided<[1], offset: 42739200>>
    %expand_shape_68 = memref.expand_shape %subview_67 [[0, 1]] : memref<2359296xf32, strided<[1], offset: 42739200>> into memref<768x3072xf32, strided<[3072, 1], offset: 42739200>>
    %subview_69 = memref.subview %arg0[45098496] [768] [1] : memref<109486854xf32> to memref<768xf32, strided<[1], offset: 45098496>>
    %subview_70 = memref.subview %arg0[45099264] [768] [1] : memref<109486854xf32> to memref<768xf32, strided<[1], offset: 45099264>>
    %subview_71 = memref.subview %arg0[45100032] [768] [1] : memref<109486854xf32> to memref<768xf32, strided<[1], offset: 45100032>>
    %subview_72 = memref.subview %arg0[45100800] [589824] [1] : memref<109486854xf32> to memref<589824xf32, strided<[1], offset: 45100800>>
    %expand_shape_73 = memref.expand_shape %subview_72 [[0, 1]] : memref<589824xf32, strided<[1], offset: 45100800>> into memref<768x768xf32, strided<[768, 1], offset: 45100800>>
    %subview_74 = memref.subview %arg0[45690624] [768] [1] : memref<109486854xf32> to memref<768xf32, strided<[1], offset: 45690624>>
    %subview_75 = memref.subview %arg0[45691392] [589824] [1] : memref<109486854xf32> to memref<589824xf32, strided<[1], offset: 45691392>>
    %expand_shape_76 = memref.expand_shape %subview_75 [[0, 1]] : memref<589824xf32, strided<[1], offset: 45691392>> into memref<768x768xf32, strided<[768, 1], offset: 45691392>>
    %subview_77 = memref.subview %arg0[46281216] [768] [1] : memref<109486854xf32> to memref<768xf32, strided<[1], offset: 46281216>>
    %subview_78 = memref.subview %arg0[46281984] [589824] [1] : memref<109486854xf32> to memref<589824xf32, strided<[1], offset: 46281984>>
    %expand_shape_79 = memref.expand_shape %subview_78 [[0, 1]] : memref<589824xf32, strided<[1], offset: 46281984>> into memref<768x768xf32, strided<[768, 1], offset: 46281984>>
    %subview_80 = memref.subview %arg0[46871808] [768] [1] : memref<109486854xf32> to memref<768xf32, strided<[1], offset: 46871808>>
    %subview_81 = memref.subview %arg0[46872576] [589824] [1] : memref<109486854xf32> to memref<589824xf32, strided<[1], offset: 46872576>>
    %expand_shape_82 = memref.expand_shape %subview_81 [[0, 1]] : memref<589824xf32, strided<[1], offset: 46872576>> into memref<768x768xf32, strided<[768, 1], offset: 46872576>>
    %subview_83 = memref.subview %arg0[47462400] [768] [1] : memref<109486854xf32> to memref<768xf32, strided<[1], offset: 47462400>>
    %subview_84 = memref.subview %arg0[47463168] [768] [1] : memref<109486854xf32> to memref<768xf32, strided<[1], offset: 47463168>>
    %subview_85 = memref.subview %arg0[47463936] [768] [1] : memref<109486854xf32> to memref<768xf32, strided<[1], offset: 47463936>>
    %subview_86 = memref.subview %arg0[47464704] [2359296] [1] : memref<109486854xf32> to memref<2359296xf32, strided<[1], offset: 47464704>>
    %expand_shape_87 = memref.expand_shape %subview_86 [[0, 1]] : memref<2359296xf32, strided<[1], offset: 47464704>> into memref<3072x768xf32, strided<[768, 1], offset: 47464704>>
    %subview_88 = memref.subview %arg0[49824000] [3072] [1] : memref<109486854xf32> to memref<3072xf32, strided<[1], offset: 49824000>>
    %subview_89 = memref.subview %arg0[49827072] [2359296] [1] : memref<109486854xf32> to memref<2359296xf32, strided<[1], offset: 49827072>>
    %expand_shape_90 = memref.expand_shape %subview_89 [[0, 1]] : memref<2359296xf32, strided<[1], offset: 49827072>> into memref<768x3072xf32, strided<[3072, 1], offset: 49827072>>
    %subview_91 = memref.subview %arg0[52186368] [768] [1] : memref<109486854xf32> to memref<768xf32, strided<[1], offset: 52186368>>
    %subview_92 = memref.subview %arg0[52187136] [768] [1] : memref<109486854xf32> to memref<768xf32, strided<[1], offset: 52187136>>
    %subview_93 = memref.subview %arg0[52187904] [768] [1] : memref<109486854xf32> to memref<768xf32, strided<[1], offset: 52187904>>
    %subview_94 = memref.subview %arg0[52188672] [589824] [1] : memref<109486854xf32> to memref<589824xf32, strided<[1], offset: 52188672>>
    %expand_shape_95 = memref.expand_shape %subview_94 [[0, 1]] : memref<589824xf32, strided<[1], offset: 52188672>> into memref<768x768xf32, strided<[768, 1], offset: 52188672>>
    %subview_96 = memref.subview %arg0[52778496] [768] [1] : memref<109486854xf32> to memref<768xf32, strided<[1], offset: 52778496>>
    %subview_97 = memref.subview %arg0[52779264] [589824] [1] : memref<109486854xf32> to memref<589824xf32, strided<[1], offset: 52779264>>
    %expand_shape_98 = memref.expand_shape %subview_97 [[0, 1]] : memref<589824xf32, strided<[1], offset: 52779264>> into memref<768x768xf32, strided<[768, 1], offset: 52779264>>
    %subview_99 = memref.subview %arg0[53369088] [768] [1] : memref<109486854xf32> to memref<768xf32, strided<[1], offset: 53369088>>
    %subview_100 = memref.subview %arg0[53369856] [589824] [1] : memref<109486854xf32> to memref<589824xf32, strided<[1], offset: 53369856>>
    %expand_shape_101 = memref.expand_shape %subview_100 [[0, 1]] : memref<589824xf32, strided<[1], offset: 53369856>> into memref<768x768xf32, strided<[768, 1], offset: 53369856>>
    %subview_102 = memref.subview %arg0[53959680] [768] [1] : memref<109486854xf32> to memref<768xf32, strided<[1], offset: 53959680>>
    %subview_103 = memref.subview %arg0[53960448] [589824] [1] : memref<109486854xf32> to memref<589824xf32, strided<[1], offset: 53960448>>
    %expand_shape_104 = memref.expand_shape %subview_103 [[0, 1]] : memref<589824xf32, strided<[1], offset: 53960448>> into memref<768x768xf32, strided<[768, 1], offset: 53960448>>
    %subview_105 = memref.subview %arg0[54550272] [768] [1] : memref<109486854xf32> to memref<768xf32, strided<[1], offset: 54550272>>
    %subview_106 = memref.subview %arg0[54551040] [768] [1] : memref<109486854xf32> to memref<768xf32, strided<[1], offset: 54551040>>
    %subview_107 = memref.subview %arg0[54551808] [768] [1] : memref<109486854xf32> to memref<768xf32, strided<[1], offset: 54551808>>
    %subview_108 = memref.subview %arg0[54552576] [2359296] [1] : memref<109486854xf32> to memref<2359296xf32, strided<[1], offset: 54552576>>
    %expand_shape_109 = memref.expand_shape %subview_108 [[0, 1]] : memref<2359296xf32, strided<[1], offset: 54552576>> into memref<3072x768xf32, strided<[768, 1], offset: 54552576>>
    %subview_110 = memref.subview %arg0[56911872] [3072] [1] : memref<109486854xf32> to memref<3072xf32, strided<[1], offset: 56911872>>
    %subview_111 = memref.subview %arg0[56914944] [2359296] [1] : memref<109486854xf32> to memref<2359296xf32, strided<[1], offset: 56914944>>
    %expand_shape_112 = memref.expand_shape %subview_111 [[0, 1]] : memref<2359296xf32, strided<[1], offset: 56914944>> into memref<768x3072xf32, strided<[3072, 1], offset: 56914944>>
    %subview_113 = memref.subview %arg0[59274240] [768] [1] : memref<109486854xf32> to memref<768xf32, strided<[1], offset: 59274240>>
    %subview_114 = memref.subview %arg0[59275008] [768] [1] : memref<109486854xf32> to memref<768xf32, strided<[1], offset: 59275008>>
    %subview_115 = memref.subview %arg0[59275776] [768] [1] : memref<109486854xf32> to memref<768xf32, strided<[1], offset: 59275776>>
    %subview_116 = memref.subview %arg0[59276544] [589824] [1] : memref<109486854xf32> to memref<589824xf32, strided<[1], offset: 59276544>>
    %expand_shape_117 = memref.expand_shape %subview_116 [[0, 1]] : memref<589824xf32, strided<[1], offset: 59276544>> into memref<768x768xf32, strided<[768, 1], offset: 59276544>>
    %subview_118 = memref.subview %arg0[59866368] [768] [1] : memref<109486854xf32> to memref<768xf32, strided<[1], offset: 59866368>>
    %subview_119 = memref.subview %arg0[59867136] [589824] [1] : memref<109486854xf32> to memref<589824xf32, strided<[1], offset: 59867136>>
    %expand_shape_120 = memref.expand_shape %subview_119 [[0, 1]] : memref<589824xf32, strided<[1], offset: 59867136>> into memref<768x768xf32, strided<[768, 1], offset: 59867136>>
    %subview_121 = memref.subview %arg0[60456960] [768] [1] : memref<109486854xf32> to memref<768xf32, strided<[1], offset: 60456960>>
    %subview_122 = memref.subview %arg0[60457728] [589824] [1] : memref<109486854xf32> to memref<589824xf32, strided<[1], offset: 60457728>>
    %expand_shape_123 = memref.expand_shape %subview_122 [[0, 1]] : memref<589824xf32, strided<[1], offset: 60457728>> into memref<768x768xf32, strided<[768, 1], offset: 60457728>>
    %subview_124 = memref.subview %arg0[61047552] [768] [1] : memref<109486854xf32> to memref<768xf32, strided<[1], offset: 61047552>>
    %subview_125 = memref.subview %arg0[61048320] [589824] [1] : memref<109486854xf32> to memref<589824xf32, strided<[1], offset: 61048320>>
    %expand_shape_126 = memref.expand_shape %subview_125 [[0, 1]] : memref<589824xf32, strided<[1], offset: 61048320>> into memref<768x768xf32, strided<[768, 1], offset: 61048320>>
    %subview_127 = memref.subview %arg0[61638144] [768] [1] : memref<109486854xf32> to memref<768xf32, strided<[1], offset: 61638144>>
    %subview_128 = memref.subview %arg0[61638912] [768] [1] : memref<109486854xf32> to memref<768xf32, strided<[1], offset: 61638912>>
    %subview_129 = memref.subview %arg0[61639680] [768] [1] : memref<109486854xf32> to memref<768xf32, strided<[1], offset: 61639680>>
    %subview_130 = memref.subview %arg0[61640448] [2359296] [1] : memref<109486854xf32> to memref<2359296xf32, strided<[1], offset: 61640448>>
    %expand_shape_131 = memref.expand_shape %subview_130 [[0, 1]] : memref<2359296xf32, strided<[1], offset: 61640448>> into memref<3072x768xf32, strided<[768, 1], offset: 61640448>>
    %subview_132 = memref.subview %arg0[63999744] [3072] [1] : memref<109486854xf32> to memref<3072xf32, strided<[1], offset: 63999744>>
    %subview_133 = memref.subview %arg0[64002816] [2359296] [1] : memref<109486854xf32> to memref<2359296xf32, strided<[1], offset: 64002816>>
    %expand_shape_134 = memref.expand_shape %subview_133 [[0, 1]] : memref<2359296xf32, strided<[1], offset: 64002816>> into memref<768x3072xf32, strided<[3072, 1], offset: 64002816>>
    %subview_135 = memref.subview %arg0[66362112] [768] [1] : memref<109486854xf32> to memref<768xf32, strided<[1], offset: 66362112>>
    %subview_136 = memref.subview %arg0[66362880] [768] [1] : memref<109486854xf32> to memref<768xf32, strided<[1], offset: 66362880>>
    %subview_137 = memref.subview %arg0[66363648] [768] [1] : memref<109486854xf32> to memref<768xf32, strided<[1], offset: 66363648>>
    %subview_138 = memref.subview %arg0[66364416] [589824] [1] : memref<109486854xf32> to memref<589824xf32, strided<[1], offset: 66364416>>
    %expand_shape_139 = memref.expand_shape %subview_138 [[0, 1]] : memref<589824xf32, strided<[1], offset: 66364416>> into memref<768x768xf32, strided<[768, 1], offset: 66364416>>
    %subview_140 = memref.subview %arg0[66954240] [768] [1] : memref<109486854xf32> to memref<768xf32, strided<[1], offset: 66954240>>
    %subview_141 = memref.subview %arg0[66955008] [589824] [1] : memref<109486854xf32> to memref<589824xf32, strided<[1], offset: 66955008>>
    %expand_shape_142 = memref.expand_shape %subview_141 [[0, 1]] : memref<589824xf32, strided<[1], offset: 66955008>> into memref<768x768xf32, strided<[768, 1], offset: 66955008>>
    %subview_143 = memref.subview %arg0[67544832] [768] [1] : memref<109486854xf32> to memref<768xf32, strided<[1], offset: 67544832>>
    %subview_144 = memref.subview %arg0[67545600] [589824] [1] : memref<109486854xf32> to memref<589824xf32, strided<[1], offset: 67545600>>
    %expand_shape_145 = memref.expand_shape %subview_144 [[0, 1]] : memref<589824xf32, strided<[1], offset: 67545600>> into memref<768x768xf32, strided<[768, 1], offset: 67545600>>
    %subview_146 = memref.subview %arg0[68135424] [768] [1] : memref<109486854xf32> to memref<768xf32, strided<[1], offset: 68135424>>
    %subview_147 = memref.subview %arg0[68136192] [589824] [1] : memref<109486854xf32> to memref<589824xf32, strided<[1], offset: 68136192>>
    %expand_shape_148 = memref.expand_shape %subview_147 [[0, 1]] : memref<589824xf32, strided<[1], offset: 68136192>> into memref<768x768xf32, strided<[768, 1], offset: 68136192>>
    %subview_149 = memref.subview %arg0[68726016] [768] [1] : memref<109486854xf32> to memref<768xf32, strided<[1], offset: 68726016>>
    %subview_150 = memref.subview %arg0[68726784] [768] [1] : memref<109486854xf32> to memref<768xf32, strided<[1], offset: 68726784>>
    %subview_151 = memref.subview %arg0[68727552] [768] [1] : memref<109486854xf32> to memref<768xf32, strided<[1], offset: 68727552>>
    %subview_152 = memref.subview %arg0[68728320] [2359296] [1] : memref<109486854xf32> to memref<2359296xf32, strided<[1], offset: 68728320>>
    %expand_shape_153 = memref.expand_shape %subview_152 [[0, 1]] : memref<2359296xf32, strided<[1], offset: 68728320>> into memref<3072x768xf32, strided<[768, 1], offset: 68728320>>
    %subview_154 = memref.subview %arg0[71087616] [3072] [1] : memref<109486854xf32> to memref<3072xf32, strided<[1], offset: 71087616>>
    %subview_155 = memref.subview %arg0[71090688] [2359296] [1] : memref<109486854xf32> to memref<2359296xf32, strided<[1], offset: 71090688>>
    %expand_shape_156 = memref.expand_shape %subview_155 [[0, 1]] : memref<2359296xf32, strided<[1], offset: 71090688>> into memref<768x3072xf32, strided<[3072, 1], offset: 71090688>>
    %subview_157 = memref.subview %arg0[73449984] [768] [1] : memref<109486854xf32> to memref<768xf32, strided<[1], offset: 73449984>>
    %subview_158 = memref.subview %arg0[73450752] [768] [1] : memref<109486854xf32> to memref<768xf32, strided<[1], offset: 73450752>>
    %subview_159 = memref.subview %arg0[73451520] [768] [1] : memref<109486854xf32> to memref<768xf32, strided<[1], offset: 73451520>>
    %subview_160 = memref.subview %arg0[73452288] [589824] [1] : memref<109486854xf32> to memref<589824xf32, strided<[1], offset: 73452288>>
    %expand_shape_161 = memref.expand_shape %subview_160 [[0, 1]] : memref<589824xf32, strided<[1], offset: 73452288>> into memref<768x768xf32, strided<[768, 1], offset: 73452288>>
    %subview_162 = memref.subview %arg0[74042112] [768] [1] : memref<109486854xf32> to memref<768xf32, strided<[1], offset: 74042112>>
    %subview_163 = memref.subview %arg0[74042880] [589824] [1] : memref<109486854xf32> to memref<589824xf32, strided<[1], offset: 74042880>>
    %expand_shape_164 = memref.expand_shape %subview_163 [[0, 1]] : memref<589824xf32, strided<[1], offset: 74042880>> into memref<768x768xf32, strided<[768, 1], offset: 74042880>>
    %subview_165 = memref.subview %arg0[74632704] [768] [1] : memref<109486854xf32> to memref<768xf32, strided<[1], offset: 74632704>>
    %subview_166 = memref.subview %arg0[74633472] [589824] [1] : memref<109486854xf32> to memref<589824xf32, strided<[1], offset: 74633472>>
    %expand_shape_167 = memref.expand_shape %subview_166 [[0, 1]] : memref<589824xf32, strided<[1], offset: 74633472>> into memref<768x768xf32, strided<[768, 1], offset: 74633472>>
    %subview_168 = memref.subview %arg0[75223296] [768] [1] : memref<109486854xf32> to memref<768xf32, strided<[1], offset: 75223296>>
    %subview_169 = memref.subview %arg0[75224064] [589824] [1] : memref<109486854xf32> to memref<589824xf32, strided<[1], offset: 75224064>>
    %expand_shape_170 = memref.expand_shape %subview_169 [[0, 1]] : memref<589824xf32, strided<[1], offset: 75224064>> into memref<768x768xf32, strided<[768, 1], offset: 75224064>>
    %subview_171 = memref.subview %arg0[75813888] [768] [1] : memref<109486854xf32> to memref<768xf32, strided<[1], offset: 75813888>>
    %subview_172 = memref.subview %arg0[75814656] [768] [1] : memref<109486854xf32> to memref<768xf32, strided<[1], offset: 75814656>>
    %subview_173 = memref.subview %arg0[75815424] [768] [1] : memref<109486854xf32> to memref<768xf32, strided<[1], offset: 75815424>>
    %subview_174 = memref.subview %arg0[75816192] [2359296] [1] : memref<109486854xf32> to memref<2359296xf32, strided<[1], offset: 75816192>>
    %expand_shape_175 = memref.expand_shape %subview_174 [[0, 1]] : memref<2359296xf32, strided<[1], offset: 75816192>> into memref<3072x768xf32, strided<[768, 1], offset: 75816192>>
    %subview_176 = memref.subview %arg0[78175488] [3072] [1] : memref<109486854xf32> to memref<3072xf32, strided<[1], offset: 78175488>>
    %subview_177 = memref.subview %arg0[78178560] [2359296] [1] : memref<109486854xf32> to memref<2359296xf32, strided<[1], offset: 78178560>>
    %expand_shape_178 = memref.expand_shape %subview_177 [[0, 1]] : memref<2359296xf32, strided<[1], offset: 78178560>> into memref<768x3072xf32, strided<[3072, 1], offset: 78178560>>
    %subview_179 = memref.subview %arg0[80537856] [768] [1] : memref<109486854xf32> to memref<768xf32, strided<[1], offset: 80537856>>
    %subview_180 = memref.subview %arg0[80538624] [768] [1] : memref<109486854xf32> to memref<768xf32, strided<[1], offset: 80538624>>
    %subview_181 = memref.subview %arg0[80539392] [768] [1] : memref<109486854xf32> to memref<768xf32, strided<[1], offset: 80539392>>
    %subview_182 = memref.subview %arg0[80540160] [589824] [1] : memref<109486854xf32> to memref<589824xf32, strided<[1], offset: 80540160>>
    %expand_shape_183 = memref.expand_shape %subview_182 [[0, 1]] : memref<589824xf32, strided<[1], offset: 80540160>> into memref<768x768xf32, strided<[768, 1], offset: 80540160>>
    %subview_184 = memref.subview %arg0[81129984] [768] [1] : memref<109486854xf32> to memref<768xf32, strided<[1], offset: 81129984>>
    %subview_185 = memref.subview %arg0[81130752] [589824] [1] : memref<109486854xf32> to memref<589824xf32, strided<[1], offset: 81130752>>
    %expand_shape_186 = memref.expand_shape %subview_185 [[0, 1]] : memref<589824xf32, strided<[1], offset: 81130752>> into memref<768x768xf32, strided<[768, 1], offset: 81130752>>
    %subview_187 = memref.subview %arg0[81720576] [768] [1] : memref<109486854xf32> to memref<768xf32, strided<[1], offset: 81720576>>
    %subview_188 = memref.subview %arg0[81721344] [589824] [1] : memref<109486854xf32> to memref<589824xf32, strided<[1], offset: 81721344>>
    %expand_shape_189 = memref.expand_shape %subview_188 [[0, 1]] : memref<589824xf32, strided<[1], offset: 81721344>> into memref<768x768xf32, strided<[768, 1], offset: 81721344>>
    %subview_190 = memref.subview %arg0[82311168] [768] [1] : memref<109486854xf32> to memref<768xf32, strided<[1], offset: 82311168>>
    %subview_191 = memref.subview %arg0[82311936] [589824] [1] : memref<109486854xf32> to memref<589824xf32, strided<[1], offset: 82311936>>
    %expand_shape_192 = memref.expand_shape %subview_191 [[0, 1]] : memref<589824xf32, strided<[1], offset: 82311936>> into memref<768x768xf32, strided<[768, 1], offset: 82311936>>
    %subview_193 = memref.subview %arg0[82901760] [768] [1] : memref<109486854xf32> to memref<768xf32, strided<[1], offset: 82901760>>
    %subview_194 = memref.subview %arg0[82902528] [768] [1] : memref<109486854xf32> to memref<768xf32, strided<[1], offset: 82902528>>
    %subview_195 = memref.subview %arg0[82903296] [768] [1] : memref<109486854xf32> to memref<768xf32, strided<[1], offset: 82903296>>
    %subview_196 = memref.subview %arg0[82904064] [2359296] [1] : memref<109486854xf32> to memref<2359296xf32, strided<[1], offset: 82904064>>
    %expand_shape_197 = memref.expand_shape %subview_196 [[0, 1]] : memref<2359296xf32, strided<[1], offset: 82904064>> into memref<3072x768xf32, strided<[768, 1], offset: 82904064>>
    %subview_198 = memref.subview %arg0[85263360] [3072] [1] : memref<109486854xf32> to memref<3072xf32, strided<[1], offset: 85263360>>
    %subview_199 = memref.subview %arg0[85266432] [2359296] [1] : memref<109486854xf32> to memref<2359296xf32, strided<[1], offset: 85266432>>
    %expand_shape_200 = memref.expand_shape %subview_199 [[0, 1]] : memref<2359296xf32, strided<[1], offset: 85266432>> into memref<768x3072xf32, strided<[3072, 1], offset: 85266432>>
    %subview_201 = memref.subview %arg0[87625728] [768] [1] : memref<109486854xf32> to memref<768xf32, strided<[1], offset: 87625728>>
    %subview_202 = memref.subview %arg0[87626496] [768] [1] : memref<109486854xf32> to memref<768xf32, strided<[1], offset: 87626496>>
    %subview_203 = memref.subview %arg0[87627264] [768] [1] : memref<109486854xf32> to memref<768xf32, strided<[1], offset: 87627264>>
    %subview_204 = memref.subview %arg0[87628032] [589824] [1] : memref<109486854xf32> to memref<589824xf32, strided<[1], offset: 87628032>>
    %expand_shape_205 = memref.expand_shape %subview_204 [[0, 1]] : memref<589824xf32, strided<[1], offset: 87628032>> into memref<768x768xf32, strided<[768, 1], offset: 87628032>>
    %subview_206 = memref.subview %arg0[88217856] [768] [1] : memref<109486854xf32> to memref<768xf32, strided<[1], offset: 88217856>>
    %subview_207 = memref.subview %arg0[88218624] [589824] [1] : memref<109486854xf32> to memref<589824xf32, strided<[1], offset: 88218624>>
    %expand_shape_208 = memref.expand_shape %subview_207 [[0, 1]] : memref<589824xf32, strided<[1], offset: 88218624>> into memref<768x768xf32, strided<[768, 1], offset: 88218624>>
    %subview_209 = memref.subview %arg0[88808448] [768] [1] : memref<109486854xf32> to memref<768xf32, strided<[1], offset: 88808448>>
    %subview_210 = memref.subview %arg0[88809216] [589824] [1] : memref<109486854xf32> to memref<589824xf32, strided<[1], offset: 88809216>>
    %expand_shape_211 = memref.expand_shape %subview_210 [[0, 1]] : memref<589824xf32, strided<[1], offset: 88809216>> into memref<768x768xf32, strided<[768, 1], offset: 88809216>>
    %subview_212 = memref.subview %arg0[89399040] [768] [1] : memref<109486854xf32> to memref<768xf32, strided<[1], offset: 89399040>>
    %subview_213 = memref.subview %arg0[89399808] [589824] [1] : memref<109486854xf32> to memref<589824xf32, strided<[1], offset: 89399808>>
    %expand_shape_214 = memref.expand_shape %subview_213 [[0, 1]] : memref<589824xf32, strided<[1], offset: 89399808>> into memref<768x768xf32, strided<[768, 1], offset: 89399808>>
    %subview_215 = memref.subview %arg0[89989632] [768] [1] : memref<109486854xf32> to memref<768xf32, strided<[1], offset: 89989632>>
    %subview_216 = memref.subview %arg0[89990400] [768] [1] : memref<109486854xf32> to memref<768xf32, strided<[1], offset: 89990400>>
    %subview_217 = memref.subview %arg0[89991168] [768] [1] : memref<109486854xf32> to memref<768xf32, strided<[1], offset: 89991168>>
    %subview_218 = memref.subview %arg0[89991936] [2359296] [1] : memref<109486854xf32> to memref<2359296xf32, strided<[1], offset: 89991936>>
    %expand_shape_219 = memref.expand_shape %subview_218 [[0, 1]] : memref<2359296xf32, strided<[1], offset: 89991936>> into memref<3072x768xf32, strided<[768, 1], offset: 89991936>>
    %subview_220 = memref.subview %arg0[92351232] [3072] [1] : memref<109486854xf32> to memref<3072xf32, strided<[1], offset: 92351232>>
    %subview_221 = memref.subview %arg0[92354304] [2359296] [1] : memref<109486854xf32> to memref<2359296xf32, strided<[1], offset: 92354304>>
    %expand_shape_222 = memref.expand_shape %subview_221 [[0, 1]] : memref<2359296xf32, strided<[1], offset: 92354304>> into memref<768x3072xf32, strided<[3072, 1], offset: 92354304>>
    %subview_223 = memref.subview %arg0[94713600] [768] [1] : memref<109486854xf32> to memref<768xf32, strided<[1], offset: 94713600>>
    %subview_224 = memref.subview %arg0[94714368] [768] [1] : memref<109486854xf32> to memref<768xf32, strided<[1], offset: 94714368>>
    %subview_225 = memref.subview %arg0[94715136] [768] [1] : memref<109486854xf32> to memref<768xf32, strided<[1], offset: 94715136>>
    %subview_226 = memref.subview %arg0[94715904] [589824] [1] : memref<109486854xf32> to memref<589824xf32, strided<[1], offset: 94715904>>
    %expand_shape_227 = memref.expand_shape %subview_226 [[0, 1]] : memref<589824xf32, strided<[1], offset: 94715904>> into memref<768x768xf32, strided<[768, 1], offset: 94715904>>
    %subview_228 = memref.subview %arg0[95305728] [768] [1] : memref<109486854xf32> to memref<768xf32, strided<[1], offset: 95305728>>
    %subview_229 = memref.subview %arg0[95306496] [589824] [1] : memref<109486854xf32> to memref<589824xf32, strided<[1], offset: 95306496>>
    %expand_shape_230 = memref.expand_shape %subview_229 [[0, 1]] : memref<589824xf32, strided<[1], offset: 95306496>> into memref<768x768xf32, strided<[768, 1], offset: 95306496>>
    %subview_231 = memref.subview %arg0[95896320] [768] [1] : memref<109486854xf32> to memref<768xf32, strided<[1], offset: 95896320>>
    %subview_232 = memref.subview %arg0[95897088] [589824] [1] : memref<109486854xf32> to memref<589824xf32, strided<[1], offset: 95897088>>
    %expand_shape_233 = memref.expand_shape %subview_232 [[0, 1]] : memref<589824xf32, strided<[1], offset: 95897088>> into memref<768x768xf32, strided<[768, 1], offset: 95897088>>
    %subview_234 = memref.subview %arg0[96486912] [768] [1] : memref<109486854xf32> to memref<768xf32, strided<[1], offset: 96486912>>
    %subview_235 = memref.subview %arg0[96487680] [589824] [1] : memref<109486854xf32> to memref<589824xf32, strided<[1], offset: 96487680>>
    %expand_shape_236 = memref.expand_shape %subview_235 [[0, 1]] : memref<589824xf32, strided<[1], offset: 96487680>> into memref<768x768xf32, strided<[768, 1], offset: 96487680>>
    %subview_237 = memref.subview %arg0[97077504] [768] [1] : memref<109486854xf32> to memref<768xf32, strided<[1], offset: 97077504>>
    %subview_238 = memref.subview %arg0[97078272] [768] [1] : memref<109486854xf32> to memref<768xf32, strided<[1], offset: 97078272>>
    %subview_239 = memref.subview %arg0[97079040] [768] [1] : memref<109486854xf32> to memref<768xf32, strided<[1], offset: 97079040>>
    %subview_240 = memref.subview %arg0[97079808] [2359296] [1] : memref<109486854xf32> to memref<2359296xf32, strided<[1], offset: 97079808>>
    %expand_shape_241 = memref.expand_shape %subview_240 [[0, 1]] : memref<2359296xf32, strided<[1], offset: 97079808>> into memref<3072x768xf32, strided<[768, 1], offset: 97079808>>
    %subview_242 = memref.subview %arg0[99439104] [3072] [1] : memref<109486854xf32> to memref<3072xf32, strided<[1], offset: 99439104>>
    %subview_243 = memref.subview %arg0[99442176] [2359296] [1] : memref<109486854xf32> to memref<2359296xf32, strided<[1], offset: 99442176>>
    %expand_shape_244 = memref.expand_shape %subview_243 [[0, 1]] : memref<2359296xf32, strided<[1], offset: 99442176>> into memref<768x3072xf32, strided<[3072, 1], offset: 99442176>>
    %subview_245 = memref.subview %arg0[101801472] [768] [1] : memref<109486854xf32> to memref<768xf32, strided<[1], offset: 101801472>>
    %subview_246 = memref.subview %arg0[101802240] [768] [1] : memref<109486854xf32> to memref<768xf32, strided<[1], offset: 101802240>>
    %subview_247 = memref.subview %arg0[101803008] [768] [1] : memref<109486854xf32> to memref<768xf32, strided<[1], offset: 101803008>>
    %subview_248 = memref.subview %arg0[101803776] [589824] [1] : memref<109486854xf32> to memref<589824xf32, strided<[1], offset: 101803776>>
    %expand_shape_249 = memref.expand_shape %subview_248 [[0, 1]] : memref<589824xf32, strided<[1], offset: 101803776>> into memref<768x768xf32, strided<[768, 1], offset: 101803776>>
    %subview_250 = memref.subview %arg0[102393600] [768] [1] : memref<109486854xf32> to memref<768xf32, strided<[1], offset: 102393600>>
    %subview_251 = memref.subview %arg0[102394368] [589824] [1] : memref<109486854xf32> to memref<589824xf32, strided<[1], offset: 102394368>>
    %expand_shape_252 = memref.expand_shape %subview_251 [[0, 1]] : memref<589824xf32, strided<[1], offset: 102394368>> into memref<768x768xf32, strided<[768, 1], offset: 102394368>>
    %subview_253 = memref.subview %arg0[102984192] [768] [1] : memref<109486854xf32> to memref<768xf32, strided<[1], offset: 102984192>>
    %subview_254 = memref.subview %arg0[102984960] [589824] [1] : memref<109486854xf32> to memref<589824xf32, strided<[1], offset: 102984960>>
    %expand_shape_255 = memref.expand_shape %subview_254 [[0, 1]] : memref<589824xf32, strided<[1], offset: 102984960>> into memref<768x768xf32, strided<[768, 1], offset: 102984960>>
    %subview_256 = memref.subview %arg0[103574784] [768] [1] : memref<109486854xf32> to memref<768xf32, strided<[1], offset: 103574784>>
    %subview_257 = memref.subview %arg0[103575552] [589824] [1] : memref<109486854xf32> to memref<589824xf32, strided<[1], offset: 103575552>>
    %expand_shape_258 = memref.expand_shape %subview_257 [[0, 1]] : memref<589824xf32, strided<[1], offset: 103575552>> into memref<768x768xf32, strided<[768, 1], offset: 103575552>>
    %subview_259 = memref.subview %arg0[104165376] [768] [1] : memref<109486854xf32> to memref<768xf32, strided<[1], offset: 104165376>>
    %subview_260 = memref.subview %arg0[104166144] [768] [1] : memref<109486854xf32> to memref<768xf32, strided<[1], offset: 104166144>>
    %subview_261 = memref.subview %arg0[104166912] [768] [1] : memref<109486854xf32> to memref<768xf32, strided<[1], offset: 104166912>>
    %subview_262 = memref.subview %arg0[104167680] [2359296] [1] : memref<109486854xf32> to memref<2359296xf32, strided<[1], offset: 104167680>>
    %expand_shape_263 = memref.expand_shape %subview_262 [[0, 1]] : memref<2359296xf32, strided<[1], offset: 104167680>> into memref<3072x768xf32, strided<[768, 1], offset: 104167680>>
    %subview_264 = memref.subview %arg0[106526976] [3072] [1] : memref<109486854xf32> to memref<3072xf32, strided<[1], offset: 106526976>>
    %subview_265 = memref.subview %arg0[106530048] [2359296] [1] : memref<109486854xf32> to memref<2359296xf32, strided<[1], offset: 106530048>>
    %expand_shape_266 = memref.expand_shape %subview_265 [[0, 1]] : memref<2359296xf32, strided<[1], offset: 106530048>> into memref<768x3072xf32, strided<[3072, 1], offset: 106530048>>
    %subview_267 = memref.subview %arg0[108889344] [768] [1] : memref<109486854xf32> to memref<768xf32, strided<[1], offset: 108889344>>
    %subview_268 = memref.subview %arg0[108890112] [768] [1] : memref<109486854xf32> to memref<768xf32, strided<[1], offset: 108890112>>
    %subview_269 = memref.subview %arg0[108890880] [768] [1] : memref<109486854xf32> to memref<768xf32, strided<[1], offset: 108890880>>
    %subview_270 = memref.subview %arg0[108891648] [589824] [1] : memref<109486854xf32> to memref<589824xf32, strided<[1], offset: 108891648>>
    %expand_shape_271 = memref.expand_shape %subview_270 [[0, 1]] : memref<589824xf32, strided<[1], offset: 108891648>> into memref<768x768xf32, strided<[768, 1], offset: 108891648>>
    %subview_272 = memref.subview %arg0[109481472] [768] [1] : memref<109486854xf32> to memref<768xf32, strided<[1], offset: 109481472>>
    %subview_273 = memref.subview %arg0[109482240] [4608] [1] : memref<109486854xf32> to memref<4608xf32, strided<[1], offset: 109482240>>
    %expand_shape_274 = memref.expand_shape %subview_273 [[0, 1]] : memref<4608xf32, strided<[1], offset: 109482240>> into memref<6x768xf32, strided<[768, 1], offset: 109482240>>
    %subview_275 = memref.subview %arg0[109486848] [6] [1] : memref<109486854xf32> to memref<6xf32, strided<[1], offset: 109486848>>
    %subview_276 = memref.subview %arg1[0] [512] [1] : memref<512xi64> to memref<512xi64>
    %expand_shape_277 = memref.expand_shape %subview_276 [[0, 1]] : memref<512xi64> into memref<1x512xi64>
    %cast = memref.cast %arg3 : memref<1x5xi64> to memref<1x5xi64, strided<[5, 1], offset: ?>>
    %cast_278 = memref.cast %expand_shape_277 : memref<1x512xi64> to memref<1x512xi64, strided<[512, 1], offset: ?>>
    %cast_279 = memref.cast %expand_shape : memref<30522x768xf32> to memref<30522x768xf32, strided<[768, 1], offset: ?>>
    %cast_280 = memref.cast %arg2 : memref<1x5xi64> to memref<1x5xi64, strided<[5, 1], offset: ?>>
    %cast_281 = memref.cast %expand_shape_1 : memref<2x768xf32, strided<[768, 1], offset: 23440896>> to memref<2x768xf32, strided<[768, 1], offset: ?>>
    %cast_282 = memref.cast %arg4 : memref<1x5xi64> to memref<1x5xi64, strided<[5, 1], offset: ?>>
    %cast_283 = memref.cast %expand_shape_3 : memref<512x768xf32, strided<[768, 1], offset: 23442432>> to memref<512x768xf32, strided<[768, 1], offset: ?>>
    %cast_284 = memref.cast %subview_4 : memref<768xf32, strided<[1], offset: 23835648>> to memref<768xf32, strided<[1], offset: ?>>
    %cast_285 = memref.cast %subview_5 : memref<768xf32, strided<[1], offset: 23836416>> to memref<768xf32, strided<[1], offset: ?>>
    %cast_286 = memref.cast %expand_shape_7 : memref<768x768xf32, strided<[768, 1], offset: 23837184>> to memref<768x768xf32, strided<[768, 1], offset: ?>>
    %cast_287 = memref.cast %subview_8 : memref<768xf32, strided<[1], offset: 24427008>> to memref<768xf32, strided<[1], offset: ?>>
    %cast_288 = memref.cast %expand_shape_10 : memref<768x768xf32, strided<[768, 1], offset: 24427776>> to memref<768x768xf32, strided<[768, 1], offset: ?>>
    %cast_289 = memref.cast %subview_11 : memref<768xf32, strided<[1], offset: 25017600>> to memref<768xf32, strided<[1], offset: ?>>
    %cast_290 = memref.cast %expand_shape_13 : memref<768x768xf32, strided<[768, 1], offset: 25018368>> to memref<768x768xf32, strided<[768, 1], offset: ?>>
    %cast_291 = memref.cast %subview_14 : memref<768xf32, strided<[1], offset: 25608192>> to memref<768xf32, strided<[1], offset: ?>>
    %cast_292 = memref.cast %expand_shape_16 : memref<768x768xf32, strided<[768, 1], offset: 25608960>> to memref<768x768xf32, strided<[768, 1], offset: ?>>
    %cast_293 = memref.cast %subview_17 : memref<768xf32, strided<[1], offset: 26198784>> to memref<768xf32, strided<[1], offset: ?>>
    %cast_294 = memref.cast %subview_18 : memref<768xf32, strided<[1], offset: 26199552>> to memref<768xf32, strided<[1], offset: ?>>
    %cast_295 = memref.cast %subview_19 : memref<768xf32, strided<[1], offset: 26200320>> to memref<768xf32, strided<[1], offset: ?>>
    %cast_296 = memref.cast %expand_shape_21 : memref<3072x768xf32, strided<[768, 1], offset: 26201088>> to memref<3072x768xf32, strided<[768, 1], offset: ?>>
    %cast_297 = memref.cast %subview_22 : memref<3072xf32, strided<[1], offset: 28560384>> to memref<3072xf32, strided<[1], offset: ?>>
    %cast_298 = memref.cast %expand_shape_24 : memref<768x3072xf32, strided<[3072, 1], offset: 28563456>> to memref<768x3072xf32, strided<[3072, 1], offset: ?>>
    %cast_299 = memref.cast %subview_25 : memref<768xf32, strided<[1], offset: 30922752>> to memref<768xf32, strided<[1], offset: ?>>
    %cast_300 = memref.cast %subview_26 : memref<768xf32, strided<[1], offset: 30923520>> to memref<768xf32, strided<[1], offset: ?>>
    %cast_301 = memref.cast %subview_27 : memref<768xf32, strided<[1], offset: 30924288>> to memref<768xf32, strided<[1], offset: ?>>
    %cast_302 = memref.cast %expand_shape_29 : memref<768x768xf32, strided<[768, 1], offset: 30925056>> to memref<768x768xf32, strided<[768, 1], offset: ?>>
    %cast_303 = memref.cast %subview_30 : memref<768xf32, strided<[1], offset: 31514880>> to memref<768xf32, strided<[1], offset: ?>>
    %cast_304 = memref.cast %expand_shape_32 : memref<768x768xf32, strided<[768, 1], offset: 31515648>> to memref<768x768xf32, strided<[768, 1], offset: ?>>
    %cast_305 = memref.cast %subview_33 : memref<768xf32, strided<[1], offset: 32105472>> to memref<768xf32, strided<[1], offset: ?>>
    %cast_306 = memref.cast %expand_shape_35 : memref<768x768xf32, strided<[768, 1], offset: 32106240>> to memref<768x768xf32, strided<[768, 1], offset: ?>>
    %cast_307 = memref.cast %subview_36 : memref<768xf32, strided<[1], offset: 32696064>> to memref<768xf32, strided<[1], offset: ?>>
    %cast_308 = memref.cast %expand_shape_38 : memref<768x768xf32, strided<[768, 1], offset: 32696832>> to memref<768x768xf32, strided<[768, 1], offset: ?>>
    %cast_309 = memref.cast %subview_39 : memref<768xf32, strided<[1], offset: 33286656>> to memref<768xf32, strided<[1], offset: ?>>
    %cast_310 = memref.cast %subview_40 : memref<768xf32, strided<[1], offset: 33287424>> to memref<768xf32, strided<[1], offset: ?>>
    %cast_311 = memref.cast %subview_41 : memref<768xf32, strided<[1], offset: 33288192>> to memref<768xf32, strided<[1], offset: ?>>
    %cast_312 = memref.cast %expand_shape_43 : memref<3072x768xf32, strided<[768, 1], offset: 33288960>> to memref<3072x768xf32, strided<[768, 1], offset: ?>>
    %cast_313 = memref.cast %subview_44 : memref<3072xf32, strided<[1], offset: 35648256>> to memref<3072xf32, strided<[1], offset: ?>>
    %cast_314 = memref.cast %expand_shape_46 : memref<768x3072xf32, strided<[3072, 1], offset: 35651328>> to memref<768x3072xf32, strided<[3072, 1], offset: ?>>
    %cast_315 = memref.cast %subview_47 : memref<768xf32, strided<[1], offset: 38010624>> to memref<768xf32, strided<[1], offset: ?>>
    %cast_316 = memref.cast %subview_48 : memref<768xf32, strided<[1], offset: 38011392>> to memref<768xf32, strided<[1], offset: ?>>
    %cast_317 = memref.cast %subview_49 : memref<768xf32, strided<[1], offset: 38012160>> to memref<768xf32, strided<[1], offset: ?>>
    %cast_318 = memref.cast %expand_shape_51 : memref<768x768xf32, strided<[768, 1], offset: 38012928>> to memref<768x768xf32, strided<[768, 1], offset: ?>>
    %cast_319 = memref.cast %subview_52 : memref<768xf32, strided<[1], offset: 38602752>> to memref<768xf32, strided<[1], offset: ?>>
    %cast_320 = memref.cast %expand_shape_54 : memref<768x768xf32, strided<[768, 1], offset: 38603520>> to memref<768x768xf32, strided<[768, 1], offset: ?>>
    %cast_321 = memref.cast %subview_55 : memref<768xf32, strided<[1], offset: 39193344>> to memref<768xf32, strided<[1], offset: ?>>
    %cast_322 = memref.cast %expand_shape_57 : memref<768x768xf32, strided<[768, 1], offset: 39194112>> to memref<768x768xf32, strided<[768, 1], offset: ?>>
    %cast_323 = memref.cast %subview_58 : memref<768xf32, strided<[1], offset: 39783936>> to memref<768xf32, strided<[1], offset: ?>>
    %cast_324 = memref.cast %expand_shape_60 : memref<768x768xf32, strided<[768, 1], offset: 39784704>> to memref<768x768xf32, strided<[768, 1], offset: ?>>
    %cast_325 = memref.cast %subview_61 : memref<768xf32, strided<[1], offset: 40374528>> to memref<768xf32, strided<[1], offset: ?>>
    %cast_326 = memref.cast %subview_62 : memref<768xf32, strided<[1], offset: 40375296>> to memref<768xf32, strided<[1], offset: ?>>
    %cast_327 = memref.cast %subview_63 : memref<768xf32, strided<[1], offset: 40376064>> to memref<768xf32, strided<[1], offset: ?>>
    %cast_328 = memref.cast %expand_shape_65 : memref<3072x768xf32, strided<[768, 1], offset: 40376832>> to memref<3072x768xf32, strided<[768, 1], offset: ?>>
    %cast_329 = memref.cast %subview_66 : memref<3072xf32, strided<[1], offset: 42736128>> to memref<3072xf32, strided<[1], offset: ?>>
    %cast_330 = memref.cast %expand_shape_68 : memref<768x3072xf32, strided<[3072, 1], offset: 42739200>> to memref<768x3072xf32, strided<[3072, 1], offset: ?>>
    %cast_331 = memref.cast %subview_69 : memref<768xf32, strided<[1], offset: 45098496>> to memref<768xf32, strided<[1], offset: ?>>
    %cast_332 = memref.cast %subview_70 : memref<768xf32, strided<[1], offset: 45099264>> to memref<768xf32, strided<[1], offset: ?>>
    %cast_333 = memref.cast %subview_71 : memref<768xf32, strided<[1], offset: 45100032>> to memref<768xf32, strided<[1], offset: ?>>
    %cast_334 = memref.cast %expand_shape_73 : memref<768x768xf32, strided<[768, 1], offset: 45100800>> to memref<768x768xf32, strided<[768, 1], offset: ?>>
    %cast_335 = memref.cast %subview_74 : memref<768xf32, strided<[1], offset: 45690624>> to memref<768xf32, strided<[1], offset: ?>>
    %cast_336 = memref.cast %expand_shape_76 : memref<768x768xf32, strided<[768, 1], offset: 45691392>> to memref<768x768xf32, strided<[768, 1], offset: ?>>
    %cast_337 = memref.cast %subview_77 : memref<768xf32, strided<[1], offset: 46281216>> to memref<768xf32, strided<[1], offset: ?>>
    %cast_338 = memref.cast %expand_shape_79 : memref<768x768xf32, strided<[768, 1], offset: 46281984>> to memref<768x768xf32, strided<[768, 1], offset: ?>>
    %cast_339 = memref.cast %subview_80 : memref<768xf32, strided<[1], offset: 46871808>> to memref<768xf32, strided<[1], offset: ?>>
    %cast_340 = memref.cast %expand_shape_82 : memref<768x768xf32, strided<[768, 1], offset: 46872576>> to memref<768x768xf32, strided<[768, 1], offset: ?>>
    %cast_341 = memref.cast %subview_83 : memref<768xf32, strided<[1], offset: 47462400>> to memref<768xf32, strided<[1], offset: ?>>
    %cast_342 = memref.cast %subview_84 : memref<768xf32, strided<[1], offset: 47463168>> to memref<768xf32, strided<[1], offset: ?>>
    %cast_343 = memref.cast %subview_85 : memref<768xf32, strided<[1], offset: 47463936>> to memref<768xf32, strided<[1], offset: ?>>
    %cast_344 = memref.cast %expand_shape_87 : memref<3072x768xf32, strided<[768, 1], offset: 47464704>> to memref<3072x768xf32, strided<[768, 1], offset: ?>>
    %cast_345 = memref.cast %subview_88 : memref<3072xf32, strided<[1], offset: 49824000>> to memref<3072xf32, strided<[1], offset: ?>>
    %cast_346 = memref.cast %expand_shape_90 : memref<768x3072xf32, strided<[3072, 1], offset: 49827072>> to memref<768x3072xf32, strided<[3072, 1], offset: ?>>
    %cast_347 = memref.cast %subview_91 : memref<768xf32, strided<[1], offset: 52186368>> to memref<768xf32, strided<[1], offset: ?>>
    %cast_348 = memref.cast %subview_92 : memref<768xf32, strided<[1], offset: 52187136>> to memref<768xf32, strided<[1], offset: ?>>
    %cast_349 = memref.cast %subview_93 : memref<768xf32, strided<[1], offset: 52187904>> to memref<768xf32, strided<[1], offset: ?>>
    %cast_350 = memref.cast %expand_shape_95 : memref<768x768xf32, strided<[768, 1], offset: 52188672>> to memref<768x768xf32, strided<[768, 1], offset: ?>>
    %cast_351 = memref.cast %subview_96 : memref<768xf32, strided<[1], offset: 52778496>> to memref<768xf32, strided<[1], offset: ?>>
    %cast_352 = memref.cast %expand_shape_98 : memref<768x768xf32, strided<[768, 1], offset: 52779264>> to memref<768x768xf32, strided<[768, 1], offset: ?>>
    %cast_353 = memref.cast %subview_99 : memref<768xf32, strided<[1], offset: 53369088>> to memref<768xf32, strided<[1], offset: ?>>
    %cast_354 = memref.cast %expand_shape_101 : memref<768x768xf32, strided<[768, 1], offset: 53369856>> to memref<768x768xf32, strided<[768, 1], offset: ?>>
    %cast_355 = memref.cast %subview_102 : memref<768xf32, strided<[1], offset: 53959680>> to memref<768xf32, strided<[1], offset: ?>>
    %cast_356 = memref.cast %expand_shape_104 : memref<768x768xf32, strided<[768, 1], offset: 53960448>> to memref<768x768xf32, strided<[768, 1], offset: ?>>
    %cast_357 = memref.cast %subview_105 : memref<768xf32, strided<[1], offset: 54550272>> to memref<768xf32, strided<[1], offset: ?>>
    %cast_358 = memref.cast %subview_106 : memref<768xf32, strided<[1], offset: 54551040>> to memref<768xf32, strided<[1], offset: ?>>
    %cast_359 = memref.cast %subview_107 : memref<768xf32, strided<[1], offset: 54551808>> to memref<768xf32, strided<[1], offset: ?>>
    %cast_360 = memref.cast %expand_shape_109 : memref<3072x768xf32, strided<[768, 1], offset: 54552576>> to memref<3072x768xf32, strided<[768, 1], offset: ?>>
    %cast_361 = memref.cast %subview_110 : memref<3072xf32, strided<[1], offset: 56911872>> to memref<3072xf32, strided<[1], offset: ?>>
    %cast_362 = memref.cast %expand_shape_112 : memref<768x3072xf32, strided<[3072, 1], offset: 56914944>> to memref<768x3072xf32, strided<[3072, 1], offset: ?>>
    %cast_363 = memref.cast %subview_113 : memref<768xf32, strided<[1], offset: 59274240>> to memref<768xf32, strided<[1], offset: ?>>
    %cast_364 = memref.cast %subview_114 : memref<768xf32, strided<[1], offset: 59275008>> to memref<768xf32, strided<[1], offset: ?>>
    %cast_365 = memref.cast %subview_115 : memref<768xf32, strided<[1], offset: 59275776>> to memref<768xf32, strided<[1], offset: ?>>
    %cast_366 = memref.cast %expand_shape_117 : memref<768x768xf32, strided<[768, 1], offset: 59276544>> to memref<768x768xf32, strided<[768, 1], offset: ?>>
    %cast_367 = memref.cast %subview_118 : memref<768xf32, strided<[1], offset: 59866368>> to memref<768xf32, strided<[1], offset: ?>>
    %cast_368 = memref.cast %expand_shape_120 : memref<768x768xf32, strided<[768, 1], offset: 59867136>> to memref<768x768xf32, strided<[768, 1], offset: ?>>
    %cast_369 = memref.cast %subview_121 : memref<768xf32, strided<[1], offset: 60456960>> to memref<768xf32, strided<[1], offset: ?>>
    %cast_370 = memref.cast %expand_shape_123 : memref<768x768xf32, strided<[768, 1], offset: 60457728>> to memref<768x768xf32, strided<[768, 1], offset: ?>>
    %cast_371 = memref.cast %subview_124 : memref<768xf32, strided<[1], offset: 61047552>> to memref<768xf32, strided<[1], offset: ?>>
    %cast_372 = memref.cast %expand_shape_126 : memref<768x768xf32, strided<[768, 1], offset: 61048320>> to memref<768x768xf32, strided<[768, 1], offset: ?>>
    %cast_373 = memref.cast %subview_127 : memref<768xf32, strided<[1], offset: 61638144>> to memref<768xf32, strided<[1], offset: ?>>
    %cast_374 = memref.cast %subview_128 : memref<768xf32, strided<[1], offset: 61638912>> to memref<768xf32, strided<[1], offset: ?>>
    %cast_375 = memref.cast %subview_129 : memref<768xf32, strided<[1], offset: 61639680>> to memref<768xf32, strided<[1], offset: ?>>
    %cast_376 = memref.cast %expand_shape_131 : memref<3072x768xf32, strided<[768, 1], offset: 61640448>> to memref<3072x768xf32, strided<[768, 1], offset: ?>>
    %cast_377 = memref.cast %subview_132 : memref<3072xf32, strided<[1], offset: 63999744>> to memref<3072xf32, strided<[1], offset: ?>>
    %cast_378 = memref.cast %expand_shape_134 : memref<768x3072xf32, strided<[3072, 1], offset: 64002816>> to memref<768x3072xf32, strided<[3072, 1], offset: ?>>
    %cast_379 = memref.cast %subview_135 : memref<768xf32, strided<[1], offset: 66362112>> to memref<768xf32, strided<[1], offset: ?>>
    %cast_380 = memref.cast %subview_136 : memref<768xf32, strided<[1], offset: 66362880>> to memref<768xf32, strided<[1], offset: ?>>
    %cast_381 = memref.cast %subview_137 : memref<768xf32, strided<[1], offset: 66363648>> to memref<768xf32, strided<[1], offset: ?>>
    %cast_382 = memref.cast %expand_shape_139 : memref<768x768xf32, strided<[768, 1], offset: 66364416>> to memref<768x768xf32, strided<[768, 1], offset: ?>>
    %cast_383 = memref.cast %subview_140 : memref<768xf32, strided<[1], offset: 66954240>> to memref<768xf32, strided<[1], offset: ?>>
    %cast_384 = memref.cast %expand_shape_142 : memref<768x768xf32, strided<[768, 1], offset: 66955008>> to memref<768x768xf32, strided<[768, 1], offset: ?>>
    %cast_385 = memref.cast %subview_143 : memref<768xf32, strided<[1], offset: 67544832>> to memref<768xf32, strided<[1], offset: ?>>
    %cast_386 = memref.cast %expand_shape_145 : memref<768x768xf32, strided<[768, 1], offset: 67545600>> to memref<768x768xf32, strided<[768, 1], offset: ?>>
    %cast_387 = memref.cast %subview_146 : memref<768xf32, strided<[1], offset: 68135424>> to memref<768xf32, strided<[1], offset: ?>>
    %cast_388 = memref.cast %expand_shape_148 : memref<768x768xf32, strided<[768, 1], offset: 68136192>> to memref<768x768xf32, strided<[768, 1], offset: ?>>
    %cast_389 = memref.cast %subview_149 : memref<768xf32, strided<[1], offset: 68726016>> to memref<768xf32, strided<[1], offset: ?>>
    %cast_390 = memref.cast %subview_150 : memref<768xf32, strided<[1], offset: 68726784>> to memref<768xf32, strided<[1], offset: ?>>
    %cast_391 = memref.cast %subview_151 : memref<768xf32, strided<[1], offset: 68727552>> to memref<768xf32, strided<[1], offset: ?>>
    %cast_392 = memref.cast %expand_shape_153 : memref<3072x768xf32, strided<[768, 1], offset: 68728320>> to memref<3072x768xf32, strided<[768, 1], offset: ?>>
    %cast_393 = memref.cast %subview_154 : memref<3072xf32, strided<[1], offset: 71087616>> to memref<3072xf32, strided<[1], offset: ?>>
    %cast_394 = memref.cast %expand_shape_156 : memref<768x3072xf32, strided<[3072, 1], offset: 71090688>> to memref<768x3072xf32, strided<[3072, 1], offset: ?>>
    %cast_395 = memref.cast %subview_157 : memref<768xf32, strided<[1], offset: 73449984>> to memref<768xf32, strided<[1], offset: ?>>
    %cast_396 = memref.cast %subview_158 : memref<768xf32, strided<[1], offset: 73450752>> to memref<768xf32, strided<[1], offset: ?>>
    %cast_397 = memref.cast %subview_159 : memref<768xf32, strided<[1], offset: 73451520>> to memref<768xf32, strided<[1], offset: ?>>
    %cast_398 = memref.cast %expand_shape_161 : memref<768x768xf32, strided<[768, 1], offset: 73452288>> to memref<768x768xf32, strided<[768, 1], offset: ?>>
    %cast_399 = memref.cast %subview_162 : memref<768xf32, strided<[1], offset: 74042112>> to memref<768xf32, strided<[1], offset: ?>>
    %cast_400 = memref.cast %expand_shape_164 : memref<768x768xf32, strided<[768, 1], offset: 74042880>> to memref<768x768xf32, strided<[768, 1], offset: ?>>
    %cast_401 = memref.cast %subview_165 : memref<768xf32, strided<[1], offset: 74632704>> to memref<768xf32, strided<[1], offset: ?>>
    %cast_402 = memref.cast %expand_shape_167 : memref<768x768xf32, strided<[768, 1], offset: 74633472>> to memref<768x768xf32, strided<[768, 1], offset: ?>>
    %cast_403 = memref.cast %subview_168 : memref<768xf32, strided<[1], offset: 75223296>> to memref<768xf32, strided<[1], offset: ?>>
    %cast_404 = memref.cast %expand_shape_170 : memref<768x768xf32, strided<[768, 1], offset: 75224064>> to memref<768x768xf32, strided<[768, 1], offset: ?>>
    %cast_405 = memref.cast %subview_171 : memref<768xf32, strided<[1], offset: 75813888>> to memref<768xf32, strided<[1], offset: ?>>
    %cast_406 = memref.cast %subview_172 : memref<768xf32, strided<[1], offset: 75814656>> to memref<768xf32, strided<[1], offset: ?>>
    %cast_407 = memref.cast %subview_173 : memref<768xf32, strided<[1], offset: 75815424>> to memref<768xf32, strided<[1], offset: ?>>
    %cast_408 = memref.cast %expand_shape_175 : memref<3072x768xf32, strided<[768, 1], offset: 75816192>> to memref<3072x768xf32, strided<[768, 1], offset: ?>>
    %cast_409 = memref.cast %subview_176 : memref<3072xf32, strided<[1], offset: 78175488>> to memref<3072xf32, strided<[1], offset: ?>>
    %cast_410 = memref.cast %expand_shape_178 : memref<768x3072xf32, strided<[3072, 1], offset: 78178560>> to memref<768x3072xf32, strided<[3072, 1], offset: ?>>
    %cast_411 = memref.cast %subview_179 : memref<768xf32, strided<[1], offset: 80537856>> to memref<768xf32, strided<[1], offset: ?>>
    %cast_412 = memref.cast %subview_180 : memref<768xf32, strided<[1], offset: 80538624>> to memref<768xf32, strided<[1], offset: ?>>
    %cast_413 = memref.cast %subview_181 : memref<768xf32, strided<[1], offset: 80539392>> to memref<768xf32, strided<[1], offset: ?>>
    %cast_414 = memref.cast %expand_shape_183 : memref<768x768xf32, strided<[768, 1], offset: 80540160>> to memref<768x768xf32, strided<[768, 1], offset: ?>>
    %cast_415 = memref.cast %subview_184 : memref<768xf32, strided<[1], offset: 81129984>> to memref<768xf32, strided<[1], offset: ?>>
    %cast_416 = memref.cast %expand_shape_186 : memref<768x768xf32, strided<[768, 1], offset: 81130752>> to memref<768x768xf32, strided<[768, 1], offset: ?>>
    %cast_417 = memref.cast %subview_187 : memref<768xf32, strided<[1], offset: 81720576>> to memref<768xf32, strided<[1], offset: ?>>
    %cast_418 = memref.cast %expand_shape_189 : memref<768x768xf32, strided<[768, 1], offset: 81721344>> to memref<768x768xf32, strided<[768, 1], offset: ?>>
    %cast_419 = memref.cast %subview_190 : memref<768xf32, strided<[1], offset: 82311168>> to memref<768xf32, strided<[1], offset: ?>>
    %cast_420 = memref.cast %expand_shape_192 : memref<768x768xf32, strided<[768, 1], offset: 82311936>> to memref<768x768xf32, strided<[768, 1], offset: ?>>
    %cast_421 = memref.cast %subview_193 : memref<768xf32, strided<[1], offset: 82901760>> to memref<768xf32, strided<[1], offset: ?>>
    %cast_422 = memref.cast %subview_194 : memref<768xf32, strided<[1], offset: 82902528>> to memref<768xf32, strided<[1], offset: ?>>
    %cast_423 = memref.cast %subview_195 : memref<768xf32, strided<[1], offset: 82903296>> to memref<768xf32, strided<[1], offset: ?>>
    %cast_424 = memref.cast %expand_shape_197 : memref<3072x768xf32, strided<[768, 1], offset: 82904064>> to memref<3072x768xf32, strided<[768, 1], offset: ?>>
    %cast_425 = memref.cast %subview_198 : memref<3072xf32, strided<[1], offset: 85263360>> to memref<3072xf32, strided<[1], offset: ?>>
    %cast_426 = memref.cast %expand_shape_200 : memref<768x3072xf32, strided<[3072, 1], offset: 85266432>> to memref<768x3072xf32, strided<[3072, 1], offset: ?>>
    %cast_427 = memref.cast %subview_201 : memref<768xf32, strided<[1], offset: 87625728>> to memref<768xf32, strided<[1], offset: ?>>
    %cast_428 = memref.cast %subview_202 : memref<768xf32, strided<[1], offset: 87626496>> to memref<768xf32, strided<[1], offset: ?>>
    %cast_429 = memref.cast %subview_203 : memref<768xf32, strided<[1], offset: 87627264>> to memref<768xf32, strided<[1], offset: ?>>
    %cast_430 = memref.cast %expand_shape_205 : memref<768x768xf32, strided<[768, 1], offset: 87628032>> to memref<768x768xf32, strided<[768, 1], offset: ?>>
    %cast_431 = memref.cast %subview_206 : memref<768xf32, strided<[1], offset: 88217856>> to memref<768xf32, strided<[1], offset: ?>>
    %cast_432 = memref.cast %expand_shape_208 : memref<768x768xf32, strided<[768, 1], offset: 88218624>> to memref<768x768xf32, strided<[768, 1], offset: ?>>
    %cast_433 = memref.cast %subview_209 : memref<768xf32, strided<[1], offset: 88808448>> to memref<768xf32, strided<[1], offset: ?>>
    %cast_434 = memref.cast %expand_shape_211 : memref<768x768xf32, strided<[768, 1], offset: 88809216>> to memref<768x768xf32, strided<[768, 1], offset: ?>>
    %cast_435 = memref.cast %subview_212 : memref<768xf32, strided<[1], offset: 89399040>> to memref<768xf32, strided<[1], offset: ?>>
    %cast_436 = memref.cast %expand_shape_214 : memref<768x768xf32, strided<[768, 1], offset: 89399808>> to memref<768x768xf32, strided<[768, 1], offset: ?>>
    %cast_437 = memref.cast %subview_215 : memref<768xf32, strided<[1], offset: 89989632>> to memref<768xf32, strided<[1], offset: ?>>
    %cast_438 = memref.cast %subview_216 : memref<768xf32, strided<[1], offset: 89990400>> to memref<768xf32, strided<[1], offset: ?>>
    %cast_439 = memref.cast %subview_217 : memref<768xf32, strided<[1], offset: 89991168>> to memref<768xf32, strided<[1], offset: ?>>
    %cast_440 = memref.cast %expand_shape_219 : memref<3072x768xf32, strided<[768, 1], offset: 89991936>> to memref<3072x768xf32, strided<[768, 1], offset: ?>>
    %cast_441 = memref.cast %subview_220 : memref<3072xf32, strided<[1], offset: 92351232>> to memref<3072xf32, strided<[1], offset: ?>>
    %cast_442 = memref.cast %expand_shape_222 : memref<768x3072xf32, strided<[3072, 1], offset: 92354304>> to memref<768x3072xf32, strided<[3072, 1], offset: ?>>
    %cast_443 = memref.cast %subview_223 : memref<768xf32, strided<[1], offset: 94713600>> to memref<768xf32, strided<[1], offset: ?>>
    %cast_444 = memref.cast %subview_224 : memref<768xf32, strided<[1], offset: 94714368>> to memref<768xf32, strided<[1], offset: ?>>
    %cast_445 = memref.cast %subview_225 : memref<768xf32, strided<[1], offset: 94715136>> to memref<768xf32, strided<[1], offset: ?>>
    %cast_446 = memref.cast %expand_shape_227 : memref<768x768xf32, strided<[768, 1], offset: 94715904>> to memref<768x768xf32, strided<[768, 1], offset: ?>>
    %cast_447 = memref.cast %subview_228 : memref<768xf32, strided<[1], offset: 95305728>> to memref<768xf32, strided<[1], offset: ?>>
    %cast_448 = memref.cast %expand_shape_230 : memref<768x768xf32, strided<[768, 1], offset: 95306496>> to memref<768x768xf32, strided<[768, 1], offset: ?>>
    %cast_449 = memref.cast %subview_231 : memref<768xf32, strided<[1], offset: 95896320>> to memref<768xf32, strided<[1], offset: ?>>
    %cast_450 = memref.cast %expand_shape_233 : memref<768x768xf32, strided<[768, 1], offset: 95897088>> to memref<768x768xf32, strided<[768, 1], offset: ?>>
    %cast_451 = memref.cast %subview_234 : memref<768xf32, strided<[1], offset: 96486912>> to memref<768xf32, strided<[1], offset: ?>>
    %cast_452 = memref.cast %expand_shape_236 : memref<768x768xf32, strided<[768, 1], offset: 96487680>> to memref<768x768xf32, strided<[768, 1], offset: ?>>
    %cast_453 = memref.cast %subview_237 : memref<768xf32, strided<[1], offset: 97077504>> to memref<768xf32, strided<[1], offset: ?>>
    %cast_454 = memref.cast %subview_238 : memref<768xf32, strided<[1], offset: 97078272>> to memref<768xf32, strided<[1], offset: ?>>
    %cast_455 = memref.cast %subview_239 : memref<768xf32, strided<[1], offset: 97079040>> to memref<768xf32, strided<[1], offset: ?>>
    %cast_456 = memref.cast %expand_shape_241 : memref<3072x768xf32, strided<[768, 1], offset: 97079808>> to memref<3072x768xf32, strided<[768, 1], offset: ?>>
    %cast_457 = memref.cast %subview_242 : memref<3072xf32, strided<[1], offset: 99439104>> to memref<3072xf32, strided<[1], offset: ?>>
    %cast_458 = memref.cast %expand_shape_244 : memref<768x3072xf32, strided<[3072, 1], offset: 99442176>> to memref<768x3072xf32, strided<[3072, 1], offset: ?>>
    %cast_459 = memref.cast %subview_245 : memref<768xf32, strided<[1], offset: 101801472>> to memref<768xf32, strided<[1], offset: ?>>
    %cast_460 = memref.cast %subview_246 : memref<768xf32, strided<[1], offset: 101802240>> to memref<768xf32, strided<[1], offset: ?>>
    %cast_461 = memref.cast %subview_247 : memref<768xf32, strided<[1], offset: 101803008>> to memref<768xf32, strided<[1], offset: ?>>
    %cast_462 = memref.cast %expand_shape_249 : memref<768x768xf32, strided<[768, 1], offset: 101803776>> to memref<768x768xf32, strided<[768, 1], offset: ?>>
    %cast_463 = memref.cast %subview_250 : memref<768xf32, strided<[1], offset: 102393600>> to memref<768xf32, strided<[1], offset: ?>>
    %cast_464 = memref.cast %expand_shape_252 : memref<768x768xf32, strided<[768, 1], offset: 102394368>> to memref<768x768xf32, strided<[768, 1], offset: ?>>
    %cast_465 = memref.cast %subview_253 : memref<768xf32, strided<[1], offset: 102984192>> to memref<768xf32, strided<[1], offset: ?>>
    %cast_466 = memref.cast %expand_shape_255 : memref<768x768xf32, strided<[768, 1], offset: 102984960>> to memref<768x768xf32, strided<[768, 1], offset: ?>>
    %cast_467 = memref.cast %subview_256 : memref<768xf32, strided<[1], offset: 103574784>> to memref<768xf32, strided<[1], offset: ?>>
    %cast_468 = memref.cast %expand_shape_258 : memref<768x768xf32, strided<[768, 1], offset: 103575552>> to memref<768x768xf32, strided<[768, 1], offset: ?>>
    %cast_469 = memref.cast %subview_259 : memref<768xf32, strided<[1], offset: 104165376>> to memref<768xf32, strided<[1], offset: ?>>
    %cast_470 = memref.cast %subview_260 : memref<768xf32, strided<[1], offset: 104166144>> to memref<768xf32, strided<[1], offset: ?>>
    %cast_471 = memref.cast %subview_261 : memref<768xf32, strided<[1], offset: 104166912>> to memref<768xf32, strided<[1], offset: ?>>
    %cast_472 = memref.cast %expand_shape_263 : memref<3072x768xf32, strided<[768, 1], offset: 104167680>> to memref<3072x768xf32, strided<[768, 1], offset: ?>>
    %cast_473 = memref.cast %subview_264 : memref<3072xf32, strided<[1], offset: 106526976>> to memref<3072xf32, strided<[1], offset: ?>>
    %cast_474 = memref.cast %expand_shape_266 : memref<768x3072xf32, strided<[3072, 1], offset: 106530048>> to memref<768x3072xf32, strided<[3072, 1], offset: ?>>
    %cast_475 = memref.cast %subview_267 : memref<768xf32, strided<[1], offset: 108889344>> to memref<768xf32, strided<[1], offset: ?>>
    %cast_476 = memref.cast %subview_268 : memref<768xf32, strided<[1], offset: 108890112>> to memref<768xf32, strided<[1], offset: ?>>
    %cast_477 = memref.cast %subview_269 : memref<768xf32, strided<[1], offset: 108890880>> to memref<768xf32, strided<[1], offset: ?>>
    %cast_478 = memref.cast %expand_shape_271 : memref<768x768xf32, strided<[768, 1], offset: 108891648>> to memref<768x768xf32, strided<[768, 1], offset: ?>>
    %cast_479 = memref.cast %subview_272 : memref<768xf32, strided<[1], offset: 109481472>> to memref<768xf32, strided<[1], offset: ?>>
    %cast_480 = memref.cast %expand_shape_274 : memref<6x768xf32, strided<[768, 1], offset: 109482240>> to memref<6x768xf32, strided<[768, 1], offset: ?>>
    %cast_481 = memref.cast %subview_275 : memref<6xf32, strided<[1], offset: 109486848>> to memref<6xf32, strided<[1], offset: ?>>
    %0 = call @subgraph0(%cast, %cast_278, %cast_279, %cast_280, %cast_281, %cast_282, %cast_283, %cast_284, %cast_285, %cast_286, %cast_287, %cast_288, %cast_289, %cast_290, %cast_291, %cast_292, %cast_293, %cast_294, %cast_295, %cast_296, %cast_297, %cast_298, %cast_299, %cast_300, %cast_301, %cast_302, %cast_303, %cast_304, %cast_305, %cast_306, %cast_307, %cast_308, %cast_309, %cast_310, %cast_311, %cast_312, %cast_313, %cast_314, %cast_315, %cast_316, %cast_317, %cast_318, %cast_319, %cast_320, %cast_321, %cast_322, %cast_323, %cast_324, %cast_325, %cast_326, %cast_327, %cast_328, %cast_329, %cast_330, %cast_331, %cast_332, %cast_333, %cast_334, %cast_335, %cast_336, %cast_337, %cast_338, %cast_339, %cast_340, %cast_341, %cast_342, %cast_343, %cast_344, %cast_345, %cast_346, %cast_347, %cast_348, %cast_349, %cast_350, %cast_351, %cast_352, %cast_353, %cast_354, %cast_355, %cast_356, %cast_357, %cast_358, %cast_359, %cast_360, %cast_361, %cast_362, %cast_363, %cast_364, %cast_365, %cast_366, %cast_367, %cast_368, %cast_369, %cast_370, %cast_371, %cast_372, %cast_373, %cast_374, %cast_375, %cast_376, %cast_377, %cast_378, %cast_379, %cast_380, %cast_381, %cast_382, %cast_383, %cast_384, %cast_385, %cast_386, %cast_387, %cast_388, %cast_389, %cast_390, %cast_391, %cast_392, %cast_393, %cast_394, %cast_395, %cast_396, %cast_397, %cast_398, %cast_399, %cast_400, %cast_401, %cast_402, %cast_403, %cast_404, %cast_405, %cast_406, %cast_407, %cast_408, %cast_409, %cast_410, %cast_411, %cast_412, %cast_413, %cast_414, %cast_415, %cast_416, %cast_417, %cast_418, %cast_419, %cast_420, %cast_421, %cast_422, %cast_423, %cast_424, %cast_425, %cast_426, %cast_427, %cast_428, %cast_429, %cast_430, %cast_431, %cast_432, %cast_433, %cast_434, %cast_435, %cast_436, %cast_437, %cast_438, %cast_439, %cast_440, %cast_441, %cast_442, %cast_443, %cast_444, %cast_445, %cast_446, %cast_447, %cast_448, %cast_449, %cast_450, %cast_451, %cast_452, %cast_453, %cast_454, %cast_455, %cast_456, %cast_457, %cast_458, %cast_459, %cast_460, %cast_461, %cast_462, %cast_463, %cast_464, %cast_465, %cast_466, %cast_467, %cast_468, %cast_469, %cast_470, %cast_471, %cast_472, %cast_473, %cast_474, %cast_475, %cast_476, %cast_477, %cast_478, %cast_479, %cast_480, %cast_481) : (memref<1x5xi64, strided<[5, 1], offset: ?>>, memref<1x512xi64, strided<[512, 1], offset: ?>>, memref<30522x768xf32, strided<[768, 1], offset: ?>>, memref<1x5xi64, strided<[5, 1], offset: ?>>, memref<2x768xf32, strided<[768, 1], offset: ?>>, memref<1x5xi64, strided<[5, 1], offset: ?>>, memref<512x768xf32, strided<[768, 1], offset: ?>>, memref<768xf32, strided<[1], offset: ?>>, memref<768xf32, strided<[1], offset: ?>>, memref<768x768xf32, strided<[768, 1], offset: ?>>, memref<768xf32, strided<[1], offset: ?>>, memref<768x768xf32, strided<[768, 1], offset: ?>>, memref<768xf32, strided<[1], offset: ?>>, memref<768x768xf32, strided<[768, 1], offset: ?>>, memref<768xf32, strided<[1], offset: ?>>, memref<768x768xf32, strided<[768, 1], offset: ?>>, memref<768xf32, strided<[1], offset: ?>>, memref<768xf32, strided<[1], offset: ?>>, memref<768xf32, strided<[1], offset: ?>>, memref<3072x768xf32, strided<[768, 1], offset: ?>>, memref<3072xf32, strided<[1], offset: ?>>, memref<768x3072xf32, strided<[3072, 1], offset: ?>>, memref<768xf32, strided<[1], offset: ?>>, memref<768xf32, strided<[1], offset: ?>>, memref<768xf32, strided<[1], offset: ?>>, memref<768x768xf32, strided<[768, 1], offset: ?>>, memref<768xf32, strided<[1], offset: ?>>, memref<768x768xf32, strided<[768, 1], offset: ?>>, memref<768xf32, strided<[1], offset: ?>>, memref<768x768xf32, strided<[768, 1], offset: ?>>, memref<768xf32, strided<[1], offset: ?>>, memref<768x768xf32, strided<[768, 1], offset: ?>>, memref<768xf32, strided<[1], offset: ?>>, memref<768xf32, strided<[1], offset: ?>>, memref<768xf32, strided<[1], offset: ?>>, memref<3072x768xf32, strided<[768, 1], offset: ?>>, memref<3072xf32, strided<[1], offset: ?>>, memref<768x3072xf32, strided<[3072, 1], offset: ?>>, memref<768xf32, strided<[1], offset: ?>>, memref<768xf32, strided<[1], offset: ?>>, memref<768xf32, strided<[1], offset: ?>>, memref<768x768xf32, strided<[768, 1], offset: ?>>, memref<768xf32, strided<[1], offset: ?>>, memref<768x768xf32, strided<[768, 1], offset: ?>>, memref<768xf32, strided<[1], offset: ?>>, memref<768x768xf32, strided<[768, 1], offset: ?>>, memref<768xf32, strided<[1], offset: ?>>, memref<768x768xf32, strided<[768, 1], offset: ?>>, memref<768xf32, strided<[1], offset: ?>>, memref<768xf32, strided<[1], offset: ?>>, memref<768xf32, strided<[1], offset: ?>>, memref<3072x768xf32, strided<[768, 1], offset: ?>>, memref<3072xf32, strided<[1], offset: ?>>, memref<768x3072xf32, strided<[3072, 1], offset: ?>>, memref<768xf32, strided<[1], offset: ?>>, memref<768xf32, strided<[1], offset: ?>>, memref<768xf32, strided<[1], offset: ?>>, memref<768x768xf32, strided<[768, 1], offset: ?>>, memref<768xf32, strided<[1], offset: ?>>, memref<768x768xf32, strided<[768, 1], offset: ?>>, memref<768xf32, strided<[1], offset: ?>>, memref<768x768xf32, strided<[768, 1], offset: ?>>, memref<768xf32, strided<[1], offset: ?>>, memref<768x768xf32, strided<[768, 1], offset: ?>>, memref<768xf32, strided<[1], offset: ?>>, memref<768xf32, strided<[1], offset: ?>>, memref<768xf32, strided<[1], offset: ?>>, memref<3072x768xf32, strided<[768, 1], offset: ?>>, memref<3072xf32, strided<[1], offset: ?>>, memref<768x3072xf32, strided<[3072, 1], offset: ?>>, memref<768xf32, strided<[1], offset: ?>>, memref<768xf32, strided<[1], offset: ?>>, memref<768xf32, strided<[1], offset: ?>>, memref<768x768xf32, strided<[768, 1], offset: ?>>, memref<768xf32, strided<[1], offset: ?>>, memref<768x768xf32, strided<[768, 1], offset: ?>>, memref<768xf32, strided<[1], offset: ?>>, memref<768x768xf32, strided<[768, 1], offset: ?>>, memref<768xf32, strided<[1], offset: ?>>, memref<768x768xf32, strided<[768, 1], offset: ?>>, memref<768xf32, strided<[1], offset: ?>>, memref<768xf32, strided<[1], offset: ?>>, memref<768xf32, strided<[1], offset: ?>>, memref<3072x768xf32, strided<[768, 1], offset: ?>>, memref<3072xf32, strided<[1], offset: ?>>, memref<768x3072xf32, strided<[3072, 1], offset: ?>>, memref<768xf32, strided<[1], offset: ?>>, memref<768xf32, strided<[1], offset: ?>>, memref<768xf32, strided<[1], offset: ?>>, memref<768x768xf32, strided<[768, 1], offset: ?>>, memref<768xf32, strided<[1], offset: ?>>, memref<768x768xf32, strided<[768, 1], offset: ?>>, memref<768xf32, strided<[1], offset: ?>>, memref<768x768xf32, strided<[768, 1], offset: ?>>, memref<768xf32, strided<[1], offset: ?>>, memref<768x768xf32, strided<[768, 1], offset: ?>>, memref<768xf32, strided<[1], offset: ?>>, memref<768xf32, strided<[1], offset: ?>>, memref<768xf32, strided<[1], offset: ?>>, memref<3072x768xf32, strided<[768, 1], offset: ?>>, memref<3072xf32, strided<[1], offset: ?>>, memref<768x3072xf32, strided<[3072, 1], offset: ?>>, memref<768xf32, strided<[1], offset: ?>>, memref<768xf32, strided<[1], offset: ?>>, memref<768xf32, strided<[1], offset: ?>>, memref<768x768xf32, strided<[768, 1], offset: ?>>, memref<768xf32, strided<[1], offset: ?>>, memref<768x768xf32, strided<[768, 1], offset: ?>>, memref<768xf32, strided<[1], offset: ?>>, memref<768x768xf32, strided<[768, 1], offset: ?>>, memref<768xf32, strided<[1], offset: ?>>, memref<768x768xf32, strided<[768, 1], offset: ?>>, memref<768xf32, strided<[1], offset: ?>>, memref<768xf32, strided<[1], offset: ?>>, memref<768xf32, strided<[1], offset: ?>>, memref<3072x768xf32, strided<[768, 1], offset: ?>>, memref<3072xf32, strided<[1], offset: ?>>, memref<768x3072xf32, strided<[3072, 1], offset: ?>>, memref<768xf32, strided<[1], offset: ?>>, memref<768xf32, strided<[1], offset: ?>>, memref<768xf32, strided<[1], offset: ?>>, memref<768x768xf32, strided<[768, 1], offset: ?>>, memref<768xf32, strided<[1], offset: ?>>, memref<768x768xf32, strided<[768, 1], offset: ?>>, memref<768xf32, strided<[1], offset: ?>>, memref<768x768xf32, strided<[768, 1], offset: ?>>, memref<768xf32, strided<[1], offset: ?>>, memref<768x768xf32, strided<[768, 1], offset: ?>>, memref<768xf32, strided<[1], offset: ?>>, memref<768xf32, strided<[1], offset: ?>>, memref<768xf32, strided<[1], offset: ?>>, memref<3072x768xf32, strided<[768, 1], offset: ?>>, memref<3072xf32, strided<[1], offset: ?>>, memref<768x3072xf32, strided<[3072, 1], offset: ?>>, memref<768xf32, strided<[1], offset: ?>>, memref<768xf32, strided<[1], offset: ?>>, memref<768xf32, strided<[1], offset: ?>>, memref<768x768xf32, strided<[768, 1], offset: ?>>, memref<768xf32, strided<[1], offset: ?>>, memref<768x768xf32, strided<[768, 1], offset: ?>>, memref<768xf32, strided<[1], offset: ?>>, memref<768x768xf32, strided<[768, 1], offset: ?>>, memref<768xf32, strided<[1], offset: ?>>, memref<768x768xf32, strided<[768, 1], offset: ?>>, memref<768xf32, strided<[1], offset: ?>>, memref<768xf32, strided<[1], offset: ?>>, memref<768xf32, strided<[1], offset: ?>>, memref<3072x768xf32, strided<[768, 1], offset: ?>>, memref<3072xf32, strided<[1], offset: ?>>, memref<768x3072xf32, strided<[3072, 1], offset: ?>>, memref<768xf32, strided<[1], offset: ?>>, memref<768xf32, strided<[1], offset: ?>>, memref<768xf32, strided<[1], offset: ?>>, memref<768x768xf32, strided<[768, 1], offset: ?>>, memref<768xf32, strided<[1], offset: ?>>, memref<768x768xf32, strided<[768, 1], offset: ?>>, memref<768xf32, strided<[1], offset: ?>>, memref<768x768xf32, strided<[768, 1], offset: ?>>, memref<768xf32, strided<[1], offset: ?>>, memref<768x768xf32, strided<[768, 1], offset: ?>>, memref<768xf32, strided<[1], offset: ?>>, memref<768xf32, strided<[1], offset: ?>>, memref<768xf32, strided<[1], offset: ?>>, memref<3072x768xf32, strided<[768, 1], offset: ?>>, memref<3072xf32, strided<[1], offset: ?>>, memref<768x3072xf32, strided<[3072, 1], offset: ?>>, memref<768xf32, strided<[1], offset: ?>>, memref<768xf32, strided<[1], offset: ?>>, memref<768xf32, strided<[1], offset: ?>>, memref<768x768xf32, strided<[768, 1], offset: ?>>, memref<768xf32, strided<[1], offset: ?>>, memref<768x768xf32, strided<[768, 1], offset: ?>>, memref<768xf32, strided<[1], offset: ?>>, memref<768x768xf32, strided<[768, 1], offset: ?>>, memref<768xf32, strided<[1], offset: ?>>, memref<768x768xf32, strided<[768, 1], offset: ?>>, memref<768xf32, strided<[1], offset: ?>>, memref<768xf32, strided<[1], offset: ?>>, memref<768xf32, strided<[1], offset: ?>>, memref<3072x768xf32, strided<[768, 1], offset: ?>>, memref<3072xf32, strided<[1], offset: ?>>, memref<768x3072xf32, strided<[3072, 1], offset: ?>>, memref<768xf32, strided<[1], offset: ?>>, memref<768xf32, strided<[1], offset: ?>>, memref<768xf32, strided<[1], offset: ?>>, memref<768x768xf32, strided<[768, 1], offset: ?>>, memref<768xf32, strided<[1], offset: ?>>, memref<768x768xf32, strided<[768, 1], offset: ?>>, memref<768xf32, strided<[1], offset: ?>>, memref<768x768xf32, strided<[768, 1], offset: ?>>, memref<768xf32, strided<[1], offset: ?>>, memref<768x768xf32, strided<[768, 1], offset: ?>>, memref<768xf32, strided<[1], offset: ?>>, memref<768xf32, strided<[1], offset: ?>>, memref<768xf32, strided<[1], offset: ?>>, memref<3072x768xf32, strided<[768, 1], offset: ?>>, memref<3072xf32, strided<[1], offset: ?>>, memref<768x3072xf32, strided<[3072, 1], offset: ?>>, memref<768xf32, strided<[1], offset: ?>>, memref<768xf32, strided<[1], offset: ?>>, memref<768xf32, strided<[1], offset: ?>>, memref<768x768xf32, strided<[768, 1], offset: ?>>, memref<768xf32, strided<[1], offset: ?>>, memref<6x768xf32, strided<[768, 1], offset: ?>>, memref<6xf32, strided<[1], offset: ?>>) -> memref<1x6xf32>
    return %0 : memref<1x6xf32>
  }
}

